trained_net.pth (torch, 369029 bytes, 10 tensors)

conv1.weight f4 [12, 3, 5, 5]
-0.02069935 -0.60204136 -0.4248205 -0.13652125 0.12287916 -0.23315659 -0.66930854 0.2594929
0.22623895 0.041348316 0.14471959 -0.0314739 0.77529496 0.0827201 -0.35598856 -0.15972033
-0.2259444 0.09625447 -0.6752218 0.111412555 0.122140884 -0.0040434333 0.21635817 0.03234523
0.3503419 0.47347096 -0.35697168 -0.05703343 -0.010167582 -0.089547776 0.23109072 -0.27453417
0.6611328 0.29020715 0.13252187 0.29206613 0.33034763 1.0430603 0.20396294 -0.2900346
0.1194388 -0.17708759 0.004530339 -0.7815413 -0.06859846 0.07099159 -0.21408507 0.025235767
-0.3520914 0.17325497 0.072670996 -0.33181256 -0.3625227 -0.10590833 0.1689772 0.029178238
-0.34472245 0.31477493 0.22620913 0.09061307 0.2179641 0.15691493 0.6170915 0.10970729
-0.26905078 -0.10196982 -0.27576914 -0.1860131 -0.7362392 -0.019193446 -0.08967104 -0.22568291
0.20957445 -0.18303813 0.35703847 -0.20011416 -0.26908714 -0.03622302 0.27690756 0.0631332
0.18565696 -0.27211156 -0.47106415 -0.015731571 0.12086221 0.31793728 0.33002353 -0.3059235
-0.54568857 -0.11870431 -0.10988314 0.37847912 0.3650242 -0.005942327 -0.20143735 -0.101769745
-0.10114186 0.27606878 0.3407441 0.056142733 -0.2360925 -0.3072824 0.14890766 0.13729088
0.11914132 0.17899205 -0.37238297 -0.4117632 0.03073345 0.147843 0.28563404 0.3089234
-0.40267816 -0.47820666 0.013491546 -0.1134871 0.3499118 0.39087167 -0.14062811 -0.07121263
-0.1683704 -0.015245426 0.19569838 0.3039035 0.04444474 -0.091356486 -0.21305914 0.08497882
0.087166086 -0.04378121 0.22967315 -0.27328864 -0.39535552 -0.057160173 -0.0043576406 0.1546311
0.19038841 -0.2959428 -0.41329145 -0.16283087 -0.17589046 0.30753484 0.42733032 -0.1327547
-0.23323755 -0.037904494 0.037807036 0.28943035 0.3589662 0.13163409 -0.24854696 -0.25916928
-0.13237512 -0.30814135 -0.13580585 -0.2428277 -0.32917684 -0.16347197 -0.32692724 -0.20606999
0.15059252 -0.0054198187 0.25630963 0.16745867 0.18000218 0.20359099 0.0413491 0.21318495
0.062013038 0.27668488 0.12405594 -0.060208585 0.3446298 0.1673876 0.10172428 -0.2615435
-0.25372633 -0.2084396 -0.06777144 -0.09752435 -0.128008 -0.18294075 -0.17196329 -0.14365514
0.07594956 -0.0018427942 0.062164742 0.2680908 0.180647 0.32763872 0.18870588 -0.058481403
0.16498217 0.11087606 0.1878896 0.08631253 -0.15198715 0.049498137 0.080554865 -0.08149366
-0.049336765 -0.049134433 -0.12015004 -0.13388588 0.05269738 -0.0054027364 -0.186388 -0.07205851
-0.0592254 -0.050658144 0.1659685 -0.02694173 0.2248611 0.08273175 0.12260324 0.14342783
-0.074025564 0.23783939 0.081280015 0.1422378 -0.016857848 -0.271027 0.092269026 -0.107919775
-0.040708683 0.071000226 0.103381135 -0.3082057 0.30397272 0.025664553 0.23151559 -0.057305157
-0.63162446 0.4743171 0.10389064 0.28111303 0.13111459 -0.810365 0.3009374 0.15343553
0.23653938 0.10382716 -0.6774813 0.19213012 0.251728 0.15467498 0.08098285 -0.42302924
0.13805166 0.07549162 0.017956628 -0.09097044 -0.5135517 0.13913345 0.09925842 0.1800466
00000000: af91 a9bc 621f 1abf 1382 d9be 3acc 0bbe
00000010: 12a8 fb3d 9ac0 6ebe ce57 2bbf 41dc 843e
00000020: 2fab 673e da5c 293d 5f31 143e c7ea 00bd
00000030: bb79 463f 2869 a93d 2244 b6be ba8d 23be
00000040: f85d 67be 1021 c53d 56db 2cbf 442c e43d
00000050: 0025 fa3d c77e 84bb ff8c 5d3e 6f7c 043d
00000060: 0360 b33e c96a f23e fec4 b6be e39b 69bd
00000070: ee95 26bc d364 b7bd 0ca3 6c3e be8f 8cbe
00000080: 0040 293f 0896 943e d0b3 073e b189 953e
00000090: 5323 a93e 0083 853f a9db 503e 6a7f 94be
000000a0: 549c f43d 7356 35be 3d73 943b 1713 48bf
000000b0: 597d 8cbd 0a64 913d 1e39 5bbe 3dbb ce3c
000000c0: 5345 b4be c069 313e 88d4 943d 56e3 a9be
000000d0: 939c b9be 77e6 d8bd 5c08 2d3e 3307 ef3c
000000e0: 767f b0be 2e2a a13e 5ea3 673e 5893 b93d
000000f0: fb31 5f3e 4fae 203e b5f9 1d3f 37ae e03d
00000100: 06c1 89be 8ed5 d0bd 9d31 8dbe 387a 3ebe
00000110: 2c7a 3cbf 933b 9dbc 73a5 b7bd 6c19 67be
00000120: af9a 563e 596e 3bbe bfcd b63e baea 4cbe
00000130: cac5 89be 975e 14bd d4c6 8d3e fb4b 813d
00000140: dc1c 3e3e 3552 8bbe 522f f1be 7fdf 80bc
00000150: 9b86 f73d adc8 a23e d8f8 a83e 01a2 9cbe
00000160: 3fb2 0bbf 3f1b f3bd 690a e1bd 04c8 c13e
00000170: 74e4 ba3e dab7 c2bb 9845 4ebe a86c d0bd
00000180: 7723 cfbd e358 8d3e 0376 ae3e ecf5 653d
00000190: 3bc2 71be 1e54 9dbe 407b 183e fb95 0c3e
000001a0: 5d00 f43d b149 373e fba8 bebe a0d2 d2be
000001b0: b7c4 fb3c 2864 173e a03e 923e 352b 9e3e
000001c0: d52b cebe 81d7 f4be a50b 5d3c ed6b e8bd
000001d0: a427 b33e 5520 c83e d100 10be edd7 91bd
000001e0: 4a69 2cbe f4c7 79bc 2865 483e 3d99 9b3e
000001f0: b00b 363d 1c19 bbbd 2d2c 5abe 6009 ae3d
00000200: 2284 b23d ed53 33bd 702f 6b3e 7dec 8bbe
00000210: 0a6c cabe c920 6abd 8aca 8ebb 9d57 1e3e
00000220: 2ef5 423e d185 97be f09a d3be 23bd 26be
00000230: a11c 34be 3575 9d3e 0acb da3e d9f0 07be
00000240: d3d5 6ebe be41 1bbd 8ddb 1a3d 3730 943e
00000250: 6bca b73e 16cb 063e 1883 7ebe d6b1 84be
00000260: 588d 07be b4c4 9dbe b010 0bbe d3a7 78be
00000270: de89 a8be 3265 27be 0263 a7be 0304 53be
00000280: ed34 1a3e bc98 b1bb 043b 833e 497a 2b3e
00000290: 7e52 383e 287a 503e ad5d 293d 284d 5a3e
000002a0: 6201 7e3d a4a9 8d3e 0a11 fe3d 479d 76bd
000002b0: 5173 b03e a867 2b3e d254 d03d 08e9 85be
000002c0: 6be8 81be 3171 55be c1cb 8abd d9ba c7bd
000002d0: 8714 03be d254 3bbe 2517 30be 551a 13be
000002e0: 718b 9b3d ea89 f1ba 75a0 7e3d 3343 893e
000002f0: 87fb 383e 43c0 a73e 1d3c 413e 328a 6fbd
00000300: 16f1 283e fd12 e33d 2266 403e a0c4 b03d
00000310: 85a2 1bbe 8fbe 4a3d f3f9 a43d 26e6 a6bd
00000320: 5915 4abd 3041 49bd 3911 f6bd 6119 09be
00000330: 35d9 573d 7009 b1bb 7fdc 3ebe 6993 93bd
00000340: 5596 72bd ea7e 4fbd a5f3 293e e7b4 dcbc
00000350: fd41 663e 446f a93d 6817 fb3d bfde 123e
00000360: b79a 97bd 2b8c 733e 2376 a63d c9a6 113e
00000370: 7819 8abc 0dc4 8abe 8bf7 bc3d 0b05 ddbd
00000380: 26be 26bd 9168 913d 7db9 d33d 23cd 9dbe
00000390: 50a2 9b3e 783e d23c 6c12 6d3e d0b8 6abd
000003a0: 24b2 21bf b1d9 f23e 9ec4 d43d 0cee 8f3e
000003b0: e742 063e 1574 4fbf 7814 9a3e 341e 1d3e
000003c0: 6137 723e 56a3 d43d 6a6f 2dbf c2bd 443e
000003d0: 7ee2 803e 1e63 1e3e 56da a53d 4a97 d8be
000003e0: 6a5d 0d3e 5a9b 9a3d c719 933c b64e babd
000003f0: 2078 03bf 0079 0e3e 0048 cb3d 235e 383e

conv1.bias f4 [12]
-0.12093902 0.062484942 -0.21457897 -0.11089299 -0.5028293 -0.07480937 -0.17413035 -0.008549394
0.022016382 0.63788944 -0.14363757 -0.52507055
00000000: e0ae f7bd 36f0 7f3d 97ba 5bbe dd1b e3bd
00000010: 6cb9 00bf a835 99bd 3a4f 32be c212 0cbc
00000020: b35b b43c b94c 233f ba15 13be 066b 06bf

conv2.weight f4 [24, 12, 5, 5]
0.05025201 -0.0072133653 -0.0074675116 -0.03572043 -0.09015992 -0.01078664 -0.06271824 -0.13259156
-0.048759457 -0.10143487 -0.030850863 0.052799284 0.011698874 0.0035838883 -0.041110232 -0.10923066
-0.06143082 -0.03581098 0.14475714 0.0964003 0.196354 0.09231972 0.2034081 0.04295225
0.037970636 -0.045226377 0.12156143 0.14143826 0.06726907 -0.066628814 -0.103069596 -0.00841539
-0.063396074 0.14731042 0.15210727 -0.11260616 -0.028659418 -0.017616473 -0.035866093 0.0014912029
0.05388954 0.08967378 0.13309003 -0.11356027 -0.15977237 -0.037171837 -0.10224447 -0.07176014
-0.028656328 0.0016090353 -0.0117475 -0.018786207 0.04598348 -0.103008054 -0.186826 -0.10521512
-0.09219252 -0.014728394 -0.063155375 -0.08136138 -0.0068032825 -0.01699901 -0.0645751 -0.10885537
-0.03565421 -0.0152556505 0.014310514 0.0033224595 -0.107041724 -0.085794896 -0.049352285 -0.021078046
-0.026344625 -0.09337542 -0.08902449 -0.134776 -0.123113945 -0.021569554 -0.017996388 0.031909436
-0.18805985 -0.1510001 -0.08178736 0.056012034 0.055626575 -0.16124815 -0.13158214 -0.037528634
0.024405666 -0.0059322747 -0.13060926 -0.20024876 -0.1026673 -0.09542948 -0.049767308 -0.23470433
-0.14975508 -0.24037261 -0.11850319 -0.011748107 -0.053995263 -0.11768176 -0.11178317 -0.07287443
0.032657005 -0.107014045 -0.01354283 -0.14101242 -0.114593394 0.060491733 -0.007489947 -0.012053339
-0.1271888 -0.057174202 0.09618994 -0.06307872 -0.05647662 -0.019376839 0.018167347 0.053915877
-0.083541796 -0.027763695 -0.0415061 -0.011268723 0.05563769 0.012685988 0.07460172 0.037546314
-0.04356895 -0.13776505 0.12859178 0.10206583 -0.0059190183 -0.06937335 -0.13580061 -0.14945069
-0.08701919 0.014540759 0.062172364 -0.049165547 -0.22644304 -0.12584835 -0.03395761 0.1897732
0.27220094 -0.138841 0.027058393 0.10632428 0.10028587 0.1644667 0.08461323 0.077167235
0.08220208 -0.04115101 -0.09058555 -0.07463541 0.03253807 0.053254273 0.0034532247 -0.053770836
0.011484151 0.03576589 -0.05599668 -0.06425418 -0.006000894 -0.06655157 -0.03428402 -0.06192456
-0.06305001 -0.044959817 -0.11170853 0.0025935434 -0.007521394 0.0014781083 -0.099077374 -0.21798187
-0.04654464 -0.073595725 -0.012940026 0.09897133 -0.16664222 -0.04935993 0.014279372 0.10688565
0.20099574 -0.13749081 -0.059282098 0.010793715 0.02109961 0.1691731 -0.14866704 -0.026814848
0.07116831 0.08114346 0.09837343 -0.058795866 -0.055407032 0.09574117 0.12300829 0.01876512
-0.0029249315 0.09071237 0.05855537 -0.01322925 -0.047920138 -0.02777639 -0.00071077916 0.06565882
0.044411298 -0.043641567 -0.016026622 -0.0039156755 0.059232116 0.0827236 -0.038029786 0.026039459
0.008849204 -0.042795278 0.039286487 0.027911387 -0.18357457 -0.053767364 0.048997026 0.021127308
-0.061119713 -0.15719594 -0.016942408 0.0023218282 0.09304243 0.102676965 -0.10158468 -0.08602701
0.006337813 0.03787092 0.06122025 -0.107156284 -0.09607048 -0.11343006 0.06304703 0.16933727
-0.1719379 -0.17467846 -0.1395518 0.011088739 0.19788034 -0.10983991 -0.16956984 -0.014729499
0.09477408 0.14829698 0.17070541 0.20178996 0.102773674 -0.06457296 0.09878146 -0.08021863
00000000: 0dd5 4d3d 185e ecbb 07b2 f4bb 964f 12bd
00000010: c4a5 b8bd 73ba 30bc 6c72 80bd 15c6 07be
00000020: ffb7 47bd 16bd cfbd f3ba fcbc 1044 583d
00000030: a2ac 3f3c abdf 6a3b 3463 28bd 53b4 dfbd
00000040: e29e 7bbd 89ae 12bd 373b 143e 856d c53d
00000050: 0611 493e 1f12 bd3d 374a 503e b3ee 2f3d
00000060: 1987 1b3d 4b3f 39bd 33f5 f83d 31d5 103e
00000070: 5ec4 893d b074 88bd 2716 d3bd b4e0 09bc
00000080: cdd5 81bd 8bd8 163e 02c2 1b3e 0f9e e6bd
00000090: 28c7 eabc 6c50 90bc 53e8 12bd 7774 c33a
000000a0: 47bb 5c3d e3a6 b73d c148 083e 4992 e8bd
000000b0: 5e9b 23be 7f41 18bd 8c65 d1bd fbf6 92bd
000000c0: adc0 eabc 44e6 d23a 9678 40bc 88e5 99bc
000000d0: 2c59 3c3d e3f5 d2bd 514f 3fbe 067b d7bd
000000e0: 6fcf bcbd 5d4f 71bc 9b57 81bd cca0 a6bd
000000f0: 12ee debb 8241 8bbc f33f 84bd 90ef debd
00000100: 260a 12bd d6f2 79bc a576 6a3c 9fbd 593b
00000110: b138 dbbd 3cb5 afbd 9f25 4abd deab acbc
00000120: afd0 d7bc 9d3b bfbd 7952 b6bd b802 0abe
00000130: 2a23 fcbd a2b2 b0bc 296d 93bc 78b3 023d
00000140: c392 40be c59f 1abe 2280 a7bd e06c 653d
00000150: b1d8 633d 3c1e 25be 78bd 06be a0b7 19bd
00000160: 64ee c73c 8763 c2bb 6fbe 05be 030e 4dbe
00000170: 3c43 d2bd 8870 c3bd ced8 4bbd 5556 70be
00000180: 6559 19be 3d24 76be cdb1 f2bd 227b 40bc
00000190: 232a 5dbd 2203 f1bd 93ee e4bd 303f 95bd
000001a0: 5ac3 053d 2e2a dbbd bfe2 5dbc 8f65 10be
000001b0: f1af eabd 2ec6 773d 3b6e f5bb 5e7b 45bc
000001c0: c83d 02be 7f2f 6abd 3bff c43d 6a2f 81bd
000001d0: 0754 67bd 2dbc 9ebc b0d3 943c e5d6 5c3d
000001e0: f617 abbd b070 e3bc 4d02 2abd 73a0 38bc
000001f0: 59e4 633d e4d8 4f3c c9c8 983d 2aca 193d
00000200: 5b75 32bd 4812 0dbe 90ad 033e e407 d13d
00000210: 53f4 c1bb 9d13 8ebd 510f 0bbe 9a09 19be
00000220: 1e37 b2bd 5d3c 6e3c 73a8 7e3d d061 49bd
00000230: afe0 67be 64de 00be 2317 0bbd e853 423e
00000240: ec5d 8b3e 562c 0ebe 90a9 dd3c 8bc0 d93d
00000250: ae62 cd3d f569 283e b349 ad3d db09 9e3d
00000260: 9059 a83d f68d 28bd eb84 b9bd 73da 98bd
00000270: a446 053d 2721 5a3d 7f4f 623b cf3e 5cbd
00000280: 0528 3c3c 417f 123d c65c 65bd b297 83bd
00000290: 26a3 c4bb 314c 88bd 676d 0cbd 9ca4 7dbd
000002a0: 5d20 81bd c927 38bd 71c7 e4bd 70f8 293b
000002b0: 0776 f6bb 16bd c13a 14e9 cabd a436 5fbe
000002c0: 98a5 3ebd 5bb9 96bd 6702 54bc 7bb1 ca3d
000002d0: 42a4 2abe a32d 4abd 07f4 693c dde6 da3d
000002e0: d4d1 4d3e 64ca 0cbe c9d1 72bd 1fd8 303c
000002f0: 17d9 ac3c b73b 2d3e 2c3c 18be d0aa dbbc
00000300: b1c0 913d 8b2e a63d 0278 c93d efd3 70bd
00000310: 7cf2 62bd f213 c43d c5eb fb3d 4fb9 993c
00000320: 35b0 3fbb 68c7 b93d c1d7 6f3d 7fbf 58bc
00000330: e847 44bd 508b e3bc 9553 3aba 2278 863d
00000340: 9fe8 353d 80c1 32bd 434a 83bc 114f 80bb
00000350: 609d 723d fe6a a93d 1fc5 1bbd b450 d53c
00000360: 40fc 103c 1a4a 2fbd deea 203d 6ca6 e43c
00000370: f9fa 3bbe 2b3b 5cbd 1bb1 483d 2d13 ad3c
00000380: aa58 7abd f9f7 20be ceca 8abc d029 183b
00000390: 088d be3d 4d48 d23d a10b d0bd ee2e b0bd
000003a0: 6ead cf3b 8a1e 1b3d 16c2 7a3d c174 dbbd
000003b0: 9ac0 c4bd 054e e8bd cd1e 813d c066 2d3e
000003c0: 7d10 30be e9de 32be abe6 0ebe 8bad 353c
000003d0: 25a1 4a3e bff3 e0bd b7a3 2dbe ff53 71bc
000003e0: ea18 c23d 2adb 173e 66cd 2e3e 07a2 4e3e
000003f0: 017b d23d d43e 84bd ef4d ca3d aa49 a4bd

conv2.bias f4 [24]
0.096749656 0.22226262 0.0187384 0.022045152 -0.18290983 -0.07626278 0.18294 -0.16500455
-0.41634694 0.3573671 -0.12178502 0.21841899 0.071182005 -0.5558875 0.046993796 0.60829204
0.4698855 -0.80448943 -0.04120982 0.1696689 0.14105478 0.40303499 0.011204424 0.321772
00000000: af24 c63d d098 633e 4681 993c 0998 b43c
00000010: b74c 3bbe a92f 9cbd a054 3b3e f4f6 28be
00000020: 6d2b d5be d2f8 b63e 6d6a f9bd 3aa9 5f3e
00000030: dfc7 913d a54e 0ebf 917c 403d 07b9 1b3f
00000040: d594 f03e 05f3 4dbf a1cb 28bd afbd 2d3e
00000050: aa70 103e 9a5a ce3e c392 373c 4dbf a43e

fc1.weight f4 [120, 600]
-0.037225015 -0.0025509845 -0.0390437 0.05132081 0.0731646 0.04163751 -0.00072825834 -0.06903861
0.012511336 0.023814864 0.0090998905 0.047536176 -0.07679141 0.0048259753 0.007989795 -0.04421318
-0.028948758 -0.020561542 0.013106959 -0.016799258 -0.018038506 0.054369394 0.07295622 0.05042991
-0.016585082 0.022857837 0.008227116 -0.0015486655 -0.02341332 -0.050163668 -0.033360958 -0.055052817
-0.10798217 -0.03867663 -0.04734722 0.040686548 -0.01879205 -0.03157738 -0.03634622 -0.07926912
0.013859992 0.03444763 0.080820985 -0.0028084319 -0.018877346 -0.097758815 -0.04110436 0.006157109
0.014287402 -0.0125367 -0.06717334 -0.05413907 -0.016083185 -0.019571515 -0.039159257 -0.032059528
-0.017729526 -0.07593992 -0.0016439524 -0.061455585 0.06727891 -0.008317577 0.002297379 -0.014273766
-0.03240768 0.058680683 0.04547986 -0.009709797 -0.007294491 0.0271525 -0.020317232 -0.04565479
-0.056976154 -0.0769764 -0.018644629 -0.052813012 -0.018873347 0.0012286361 0.0055532074 -0.024506595
-0.045757215 -0.031613406 -0.043018486 0.00693373 -0.03801441 -0.017215818 -0.0696938 0.035336964
0.055704754 0.011050585 -0.014978163 -0.05213695 0.01620804 0.049754407 0.018577512 0.063868254
0.103807814 0.09114649 -0.014762178 -0.016222838 -0.0029088745 -0.010583536 -0.008466304 -0.0050912467
-0.08768706 0.031671323 0.0607668 -0.034906678 -0.04047334 -0.038529143 -0.027414564 0.052517485
-0.051786523 -0.042790115 -0.009999051 0.014071828 0.04312251 -0.00081557967 0.048766278 -0.011760894
0.0016700444 0.030343646 0.03521254 -0.016674774 0.0011185741 -0.019368175 0.018415557 0.0076166512
0.030099869 0.018182054 0.03735034 0.025271041 0.07986786 0.008437091 -0.011765314 0.023738444
-0.001149831 0.03247763 -0.036245886 0.046632618 -0.031025665 -0.0010842178 0.00800759 -0.014355403
0.020820132 -0.02845185 0.0065041976 -0.04998782 0.12546138 0.055051167 0.013164354 -0.02022885
-0.07040978 -0.1150814 -0.032875206 0.03187444 -0.03756965 -0.011703441 -0.11342175 -0.07983803
-0.030433876 -0.06557283 -0.015333155 -0.033207458 -0.017491193 -0.023824727 0.022135554 -0.02842908
-0.067534305 -0.0808927 -0.031496163 -0.0055179484 -0.1445655 -0.05594571 -0.09741322 0.020947136
-0.08215141 -0.041395165 -0.057619818 -0.033212475 -0.012081084 0.00016819645 -0.054702606 -0.07729904
-0.04400178 0.0055505726 0.05666434 -0.09542453 0.019702915 -0.034047127 0.030326754 -0.0051822457
-0.024032721 0.0151333185 0.086965315 0.036251783 0.11763519 0.06213538 -0.013780691 0.0046133767
0.03789044 -0.099045604 -0.0613436 -0.09301067 -0.10990687 0.015093839 -0.030541366 0.028607717
0.0063550803 -0.06770461 -0.049551904 -0.010535375 -0.038953252 -0.02648833 -0.062014777 -0.05376505
-0.046786297 -0.014005736 -0.011391494 -0.03538288 -0.10865119 -0.017552538 0.0040697623 -0.0614286
-0.0076576993 -0.030196115 0.011143013 0.049434703 -0.028517064 -0.020593049 -0.02903908 1.0424939e-05
0.03435714 0.06440474 -0.038741417 0.010134292 -0.017856484 0.020315316 0.0090728635 0.035655573
-0.02820143 -0.0034985072 0.035197265 0.051515013 -0.06796316 0.021144286 0.012160182 -0.05432715
-0.06646919 -0.11077396 -0.010037103 -0.04040412 -0.040804863 -0.034926645 -0.02474441 0.05156616
00000000: 4279 18bd 6b2e 27bb 49ec 1fbd c535 523d
00000010: 52d7 953d 188c 2a3d 97e8 3eba 1d64 8dbd
00000020: 59fc 4c3c 6417 c33c b517 153c 4bb5 423d
00000030: d144 9dbd 3723 9e3b a1e7 023c e118 35bd
00000040: f225 edbc ae70 a8bc 92be 563c 999e 89bc
00000050: 7dc5 93bc 71b2 5e3d 126a 953d 988f 4e3d
00000060: 70dd 87bc 5c40 bb3c 07cb 063c 97fc caba
00000070: 4acd bfbc 6b78 4dbd 80a5 08bd 107f 61bd
00000080: c225 ddbd 636b 1ebd 29ef 41bd f0a6 263d
00000090: c9f1 99bc 4857 01bd c6df 14bd d957 a2bd
000000a0: 0515 633c f518 0d3d 7985 a53d ab0d 38bb
000000b0: aaa4 9abc c635 c8bd 0c5d 28bd 93c1 c93b
000000c0: b515 6a3c bb66 4dbc 2d92 89bd eec0 5dbd
000000d0: e2c0 83bc 7154 a0bc 7565 20bd da50 03bd
000000e0: 833d 91bc 6486 9bbd e479 d7ba dab8 7bbd
000000f0: 86c9 893d 7246 08bc a08f 163b 84dc 69bc
00000100: eabd 04bd 285b 703d 1749 3a3d d715 1fbc
00000110: a006 efbb eb6e de3c 5370 a6bc 8400 3bbd
00000120: d45f 69bd cea5 9dbd 9fbc 98bc 7552 58bd
00000130: 479c 9abc 300a a13a aef7 b53b 0ec2 c8bc
00000140: eb6b 3bbd 0f7d 01bd 2734 30bd 5834 e33b
00000150: ffb4 1bbd 3008 8dbc 9fbb 8ebd 7ebd 103d
00000160: ab2a 643d 830d 353c f866 75bc 8e8d 55bd
00000170: b9c6 843c 47cb 4b3d de2f 983c 5ccd 823d
00000180: 3199 d43d 03ab ba3d 10dd 71bc c2e5 84bc
00000190: d1a2 3ebb 9166 2dbc 41b6 0abc 79d4 a6bb
000001a0: 4695 b3bd cab9 013d 9ce6 783d 4efa 0ebd
000001b0: 5fc7 25bd bcd0 1dbd 8294 e0bc 931c 573d
000001c0: 1b1e 54bd b044 2fbd 0fd3 23bc 868d 663c
000001d0: 3ba1 303d a0cc 55ba 26bf 473d c4b0 40bc
000001e0: 64e5 da3a 3d93 f83c 063b 103d 8999 88bc
000001f0: 1e9d 923a 02aa 9ebc 39dc 963c 1a95 f93b
00000200: 0094 f63c 88f2 943c acfc 183d 3705 cf3c
00000210: c391 a33d b93b 0a3c 4ec3 40bc 2077 c23c
00000220: edb5 96ba 4307 053d 9176 14bd d801 3f3d
00000230: 8929 febc 501c 8eba 4432 033c ed32 6bbc
00000240: fb8e aa3c db13 e9bc 2a21 d53b 07c0 4cbd
00000250: f378 003e 557d 613d 4daf 573c f9b6 a5bc
00000260: 0133 90bd ccaf ebbd 27a8 06bd c68e 023d
00000270: a2e2 19bd cabf 3fbc aa49 e8bd 1f82 a3bd
00000280: 7750 f9bc 0c4b 86bd ea37 7bbc 8b04 08bd
00000290: b149 8fbc 132c c3bc 9f55 b53c 1ae4 e8bc
000002a0: 6d4f 8abd 12ab a5bd 1f02 01bd e8cf b4bb
000002b0: fa08 14be 5427 65bd 9580 c7bd 5499 ab3c
000002c0: 003f a8bd fa8d 29bd c202 6cbd ce09 08bd
000002d0: bdef 45bc e45d 3039 d70f 60bd f64e 9ebd
000002e0: 363b 34bd 94e1 b53b de18 683d f06d c3bd
000002f0: 0268 a13c 0075 0bbd d06f f83c d4cf a9bb
00000300: 45e0 c4bc bdf1 773c df1a b23d c07c 143d
00000310: b8ea f03d ab81 7e3d 68c8 61bc cf2b 973b
00000320: 0233 1b3d 6cd8 cabd 6d43 7bbd 617c bebd
00000330: da16 e1bd 264c 773c e331 fabc bb5a ea3c
00000340: 473e d03b b7a8 8abd f0f6 4abd 919c 2cbc
00000350: 728d 1fbd 0efe d8bc 3503 7ebd be38 5cbd
00000360: fda2 3fbd 5178 65bc 64a3 3abc a4ed 10bd
00000370: 8484 debd 57ca 8fbc a45b 853b 8e9c 7bbd
00000380: 70ed fabb d85d f7bc 2f91 363c 0b7c 4a3d
00000390: 9e9c e9bc c1b2 a8bc 5de3 edbc c6e6 2e37
000003a0: 13ba 0c3d a2e6 833d 52af 1ebd 4d0a 263c
000003b0: c347 92bc 4e6c a63c 59a6 143c 940b 123d
000003c0: af06 e7bc 3647 65bb 022b 103d 6801 533d
000003d0: 4530 8bbd c836 ad3c 803b 473c 2586 5ebd
000003e0: 0021 88bd 75dd e2bd a972 24bc ca7e 25bd
000003f0: 0023 27bd 3e0f 0fbd cab4 cabc 0a37 533d

fc1.bias f4 [120]
0.05459305 0.039969362 0.14445336 0.08538808 -0.023340158 0.016806792 -0.020663982 0.042633392
0.039540738 -0.054932516 0.009020795 -0.056005657 0.010646914 0.094811775 0.13662729 0.07516821
0.09478297 -0.07000303 -0.04845781 0.13992989 -0.0540466 0.02404446 0.09651856 -0.046446785
-0.025917705 0.057314392 0.04392921 0.04651693 -0.0045678793 0.043496355 -0.030223433 0.0828328
-0.0631717 -0.03327746 0.05930635 -0.045690544 -0.06161859 0.021456154 0.09657855 0.089509614
-0.027223015 0.09779458 -0.06337556 0.080531076 3.3738581e-06 -0.0001189698 0.034289766 -0.04424457
0.023255557 0.00043565387 -0.009893738 -0.11665469 -0.03884133 0.010754152 0.017157106 0.025464118
0.049742248 -0.032586843 -0.014449059 0.01822029 0.086289495 -0.14560334 0.14154404 0.06941123
-0.017763358 0.08996996 0.07076539 0.011583007 0.05599329 0.09256623 -0.0044474863 0.019385437
-0.0096445 0.10772816 0.065659516 0.074593954 -0.008187828 -0.075927176 -0.032955512 -0.010912474
0.053875178 -0.037643284 -0.010893533 -0.11257079 -0.01584446 0.02197982 0.10971085 -0.022011885
-0.03731483 -0.0092648985 -0.049913954 -0.084969945 -0.030949866 0.049922954 -0.15492505 2.0301173e-05
0.029781444 0.12327046 0.06922608 -0.055071633 0.05681472 -0.016100584 0.06343434 -0.03212408
0.0017435577 -0.07894368 0.007124299 0.00798205 0.048239592 -0.010840832 0.07179066 0.013971374
0.03530597 -0.06669382 0.034753162 -0.03798973 0.14203444 -0.052634265 0.015478991 0.038961243
00000000: f69c 5f3d eab6 233d 95eb 133e f2df ae3d
00000010: dc33 bfbc 66ae 893c 8347 a9bc 5aa0 2e3d
00000020: 78f5 213d eb00 61bd f5cb 133c 3066 65bd
00000030: 6570 2e3c ad2c c23d 06e8 0b3e caf1 993d
00000040: 931d c23d c05d 8fbd b27b 46bd c849 0f3e
00000050: f85f 5dbd e3f8 c43c 86ab c53d fc3e 3ebd
00000060: 5e51 d4bc 7fc2 6a3d 1eef 333d 8988 3e3d
00000070: 26ae 95bb 3c29 323d 2297 f7bc 3ea4 a93d
00000080: 2a60 81bd f24d 08bd 37eb 723d 0226 3bbd
00000090: c663 7cbd d1c4 af3c faca c53d d150 b73d
000000a0: cd02 dfbc 8648 c83d 0ccb 81bd 7aed a43d
000000b0: 716a 6236 6d7f f9b8 6d73 0c3d cb39 35bd
000000c0: 7082 be3c 7968 e439 5819 22bc a7e8 eebd
000000d0: 1618 1fbd 2f32 303c 0f8d 8c3c 209a d03c
000000e0: 87be 4b3d c879 05bd bfbb 6cbc b842 953c
000000f0: 8cb8 b03d 0b19 15be ecf0 103e 7a27 8e3d
00000100: 7684 91bc 2c42 b83d 72ed 903d a7c6 3d3c
00000110: 3859 653d 5d93 bd3d 38bc 91bb 35ce 9e3c
00000120: f703 1ebc 95a0 dc3d 7f78 863d b7c4 983d
00000130: 3d26 06bc b57f 9bbd 5cfc 06bd 3cca 32bc
00000140: 38ac 5c3d d82f 1abd ca7a 32bc 848b e6bd
00000150: 3ecc 81bc 060f b43c 15b0 e03d 4552 b4bc
00000160: 6fd7 18bd cdcb 17bc 9372 4cbd b904 aebd
00000170: 938a fdbc 037c 4c3d aca4 1ebe 704c aa37
00000180: 37f8 f33c 3975 fc3d 67c6 8d3d cb92 61bd
00000190: 8db6 683d 5fe5 83bc dde9 813d 8a94 03bd
000001a0: 1788 e43a 39ad a1bd f472 e93b 25c7 023c
000001b0: e196 453d bf9d 31bc fb06 933d 31e8 643c
000001c0: fe9c 103d c596 88bd 5559 0e3d 1e9b 1bbd
000001d0: 7a71 113e 0797 57bd 989b 7d3c d395 1f3d

fc2.weight f4 [84, 120]
0.010261944 -0.1159274 -0.09637966 -0.05448025 0.03820374 0.029241698 -0.028125362 -0.025310583
-0.052406564 0.07617858 0.0060471143 -0.14344963 0.13544956 0.03378698 0.13391615 0.08793414
0.06829836 -0.027220719 0.022823397 -0.1255536 0.0008505284 -0.012380222 0.16434927 0.050975326
-0.022222517 -0.1321657 0.0014544122 0.09180403 -0.025781343 0.06651575 -0.016150964 -0.15739723
-0.029176971 0.07714713 0.08104224 0.0032210299 -0.06778793 0.15280955 -0.14753237 -0.027013557
-0.15712191 0.0429893 -0.16123503 0.043617457 0.06786642 -0.07079774 -0.13423872 0.08013212
0.12799953 0.040889945 0.09952176 -0.15898749 -0.079251304 -0.054905213 0.005086767 0.009274328
0.05485426 -0.06958151 0.013655841 0.097982645 0.16326521 -0.22449942 0.022705989 -0.010120414
0.055498805 0.13326824 0.04860731 -0.07488523 0.08721429 -0.06741399 0.026786173 -0.07943313
0.035165943 0.028374925 -0.008288103 -0.06303165 -0.050648388 -0.18465544 0.033785544 0.04150867
-0.03382826 -0.046145573 -0.039624933 -0.04018186 0.026982037 -0.03078639 0.04263856 0.04156204
-0.035353053 -0.08034971 -0.06709492 0.010953881 0.093364246 0.0836045 -0.017843064 0.09806397
-0.046810895 0.18337084 -0.124353655 0.04840935 -0.015555146 -0.061357163 0.13015896 0.040521894
-0.03503571 -0.07575314 0.07186832 0.09881978 -0.02292415 -0.106413364 -0.14522293 0.15811658
0.023755599 -0.021376545 0.040020887 -0.1752783 0.10054785 -0.023531042 0.07763565 -0.04065495
-0.049255807 -0.043290168 0.16520515 0.05005353 -0.09475983 0.019536214 -0.07716271 0.06255859
0.04475439 0.03764159 0.037835762 0.0854582 -0.06334828 0.052407157 -0.035578366 0.09289796
0.012367271 0.038760297 -0.097153716 -0.084205166 0.020460146 -0.024417061 0.009699723 0.013101954
0.06343683 0.079985596 0.06185236 -0.0816091 -0.11876868 0.122410655 0.00035221037 -0.094412774
0.02214692 0.028187435 -0.0021602311 -0.13210033 0.12989256 0.0036056875 -0.032205157 -0.109966055
-0.009189291 0.11350817 0.016594034 -0.014119764 -0.016680231 -0.030751916 -0.07087488 -0.009788032
-0.09873012 -0.06551959 -0.052477572 -0.017551716 0.0381346 0.063568056 -0.017564647 0.084068485
-0.08251165 0.04283579 0.07790805 0.10038237 0.1065091 0.11455797 0.08293363 0.038712446
-0.019522825 0.0025673436 0.042127326 -0.013248205 0.13826773 -0.062957145 0.019844629 -0.12507574
-0.119777106 -0.014724714 -0.07613851 -0.07945384 0.0077715097 -0.044994645 -0.041621417 -0.08753938
-0.10060204 -0.025240252 0.06817528 0.023840511 0.062011555 0.089668326 0.101560116 0.055797894
0.12825277 0.04081367 -0.04862462 0.06679656 0.00664606 -0.07992167 -0.07651574 0.026520772
-0.18906118 0.19402227 0.09765968 -0.056035005 -0.07538838 0.12977223 0.022241255 -0.025669523
0.051070523 -0.00586587 -0.038666278 0.013706509 -0.005195151 -0.044316407 -0.109984994 -0.087788686
-0.044970337 -0.03361673 -0.0015452501 0.01934215 0.13917884 -0.08753187 0.105584465 -0.11056052
-0.035758 -0.014484329 -0.110289544 0.07030056 -0.021792714 0.07298069 -0.045461528 -0.100408934
-0.11083703 -0.06098886 -0.07513565 0.036745276 0.034421463 -0.026173947 -0.14594129 -0.057935353
00000000: b621 283c 586b edbd b362 c5bd af26 5fbd
00000010: 867b 1c3d 498c ef3c 2967 e6bc 2458 cfbc
00000020: 44a8 56bd 8403 9c3d df26 c63b 76e4 12be
00000030: 4ab3 0a3e 3764 0a3d 5121 093e d016 b43d
00000040: 03e0 8b3d fcfd debc 22f8 ba3c 1f91 00be
00000050: fff5 5e3a 6ad6 4abc 2d4b 283e 81cb 503d
00000060: ff0b b6bc 7256 07be faa1 be3a c003 bc3d
00000070: 6533 d3bc 6939 883d 074f 84bc bd2c 21be
00000080: 8b04 efbc 51ff 9d3d 79f9 a53d ea17 533b
00000090: 66d4 8abd 1b7a 1c3e ba12 17be 894b ddbc
000000a0: 91e4 20be 8c15 303d cc1a 25be 38a8 323d
000000b0: 8dfd 8a3d 68fe 90bd e075 09be 4f1c a43d
000000c0: 4f12 033e 377c 273d 11d2 cb3d 9ecd 22be
000000d0: 824e a2bd 4ae4 60bd e5ae a63b 5af3 173c
000000e0: dcae 603d c080 8ebd c0bc 5f3c 20ab c83d
000000f0: ff2e 273e 2de3 65be e901 ba3c 18d0 25bc
00000100: b752 633d 7877 083e 7518 473d 6d5d 99bd
00000110: 689d b23d 5910 8abd ad6e db3c d6ad a2bd
00000120: 2a0a 103d 8872 e83c d3ca 07bc bd16 81bd
00000130: af74 4fbd 5116 3dbe b662 0a3d ff04 2a3d
00000140: 808f 0abd 2403 3dbd c14d 22bd bc95 24bd
00000150: 6f09 dd3c bd33 fcbc c5a5 2e3d f53c 2a3d
00000160: 5dce 10bd 648e a4bd 1069 89bd e877 333c
00000170: c135 bf3d d638 ab3d 9e2b 92bc c3d5 c83d
00000180: c8bc 3fbd 91c5 3b3e 21ad febd e248 463d
00000190: 03db 7ebc a651 7bbd 6448 053e 49fa 253d
000001a0: 9b81 0fbd 7624 9bbd b32f 933d 0662 ca3d
000001b0: 6dcb bbbc 40ef d9bd 52b5 14be 50e9 213e
000001c0: 1a9b c23c dd1d afbc f1ec 233d 287c 33be
000001d0: 08ec cd3d 2cc4 c0bc 71ff 9e3d ce85 26bd
000001e0: 75c0 49bd 0851 31bd 8a2b 293e ee04 4d3d
000001f0: 7111 c2bd 690a a03c 7c07 9ebd b81e 803d
00000200: 6150 373d 112e 1a3d acf9 1a3d b504 af3d
00000210: bebc 81bd e3a8 563d 9fba 11bd 4941 be3d
00000220: 18a0 4a3c 1ec3 1e3d 87f8 c6bd c273 acbd
00000230: 099c a73c 4a06 c8bc 96eb 1e3c 94a9 563c
00000240: 2beb 813d 7dcf a33d e658 7d3d ac22 a7bd
00000250: fe3c f3bd 70b2 fa3d e0a8 b839 7c5b c1bd
00000260: 756d b53c 56e9 e63c aa92 0dbb 4f45 07be
00000270: 8e02 053e 664d 6c3b 8ee9 03bd e235 e1bd
00000280: ae8e 16bc f976 e83d 36f0 873c 9556 67bc
00000290: fba4 88bc 71eb fbbc d926 91bd fb5d 20bc
000002a0: 0433 cabd 232f 86bd b9f2 56bd 9ec8 8fbc
000002b0: 0733 1c3d f82f 823d bce3 8fbc 192c ac3d
000002c0: defb a8bd 9574 2f3d 418e 9f3d 4695 cd3d
000002d0: 7121 da3d 5e9d ea3d 1bd9 a93d f190 1e3d
000002e0: 55ee 9fbc e140 283b b48d 2c3d 000f 59bc
000002f0: 0e96 0d3e adef 80bd 3491 a23c db13 00be
00000300: b34d f5bd ed3f 71bc 82ee 9bbd b2b8 a2bd
00000310: 26a8 fe3b 4e4c 38bd 387b 2abd d947 b3bd
00000320: 7108 cebd a5c4 cebc 7b9f 8b3d 2d4d c33c
00000330: d4ff 7d3d 07a4 b73d c0fe cf3d 558c 643d
00000340: b254 033e 3c2c 273d 9c2a 47bd a3cc 883d
00000350: 31c7 d93b f9ad a3bd 49b4 9cbd 1742 d93c
00000360: 4199 41be c6ad 463e cc01 c83d f684 65bd
00000370: 3965 9abd 03e3 043e 4b33 b63c e448 d2bc
00000380: 532f 513d 7c36 c0bb 8860 1ebd 4491 603c
00000390: 163c aabb 1f85 35bd d03f e1bd 8eca b3bd
000003a0: d132 38bd b2b1 09bd fd89 caba 6e73 9e3c
000003b0: e684 0e3e e943 b3bd ab3c d83d 8e6d e2bd
000003c0: fb76 12bd ae4f 6dbc 7cdf e1bd bdf9 8f3d
000003d0: a286 b2bc e676 953d de35 3abd 33a3 cdbd
000003e0: 86fe e2bd 74cf 79bd b8e0 99bd 3782 163d
000003f0: 85fd 0c3d bf6a d6bc a271 15be 9f4d 6dbd

fc2.bias f4 [84]
0.09465016 -0.021702174 -0.027405437 -0.059610486 -0.02873147 0.00978199 0.11895965 -0.014493803
0.2353471 0.2850569 0.03730721 0.15941317 -0.12930134 0.15225472 -0.16240747 0.20130523
-0.072566755 -0.05664566 -0.124518506 0.21579064 -0.019252712 -0.06552131 -0.011588753 -0.047371157
-0.07346197 0.06015182 0.17519642 -0.044758376 -0.06585733 0.22242999 -0.09816945 0.27969486
-0.0017731485 0.05763007 0.14306419 -0.055818398 -0.025414916 0.003608391 -0.09073569 0.08576766
-0.1764784 -0.116210185 0.15718439 -0.012073837 0.039799687 0.05924258 -0.045028783 0.016618904
0.20122555 -0.060661145 0.09105099 -0.0679058 0.12694654 0.050070446 0.01285216 0.003038621
0.047594175 -0.2229462 -0.053802963 0.03610405 0.07445832 -0.05927331 -0.06159754 -0.032735806
0.075602636 0.08135912 0.23808064 -0.02326823 0.052791223 -0.02721183 -0.047858868 -0.0135534415
0.11628524 0.0026262363 0.0863357 0.21628234 -0.009212444 -0.033113558 0.057217047 -0.15025637
-0.13318044 0.10431776 -0.042942222 0.11777718
00000000: f1d7 c13d c2c8 b1bc 5e81 e0bc 202a 74bd
00000010: 435e ebbc a444 203c 1ea1 f33d 6a77 6dbc
00000020: d5fe 703e faf2 913e 72cf 183d 353d 233e
00000030: 9267 04be a9e8 1b3e 254e 26be f522 4e3e
00000040: e19d 94bd 4805 68bd 8f03 ffbd 39f8 5c3e
00000050: ddb7 9dbc 0930 86bd c1de 3dbc 4208 42bd
00000060: 3b73 96bd c161 763d b166 333e 8f54 37bd
00000070: 35e0 86bd b0c4 633e 110d c9bd 2a34 8f3e
00000080: fe68 e8ba 820d 6c3d 6b7f 123e d5a1 64bd
00000090: f132 d0bc c17a 6c3b a2d3 b9bd f4a6 af3d
000000a0: c1b6 34be 9bff edbd f2f4 203e 58d1 45bc
000000b0: ff04 233d 59a8 723d 1a70 38bd 5e24 883c
000000c0: 120e 4e3e d277 78bd f178 ba3d 3212 8bbd
000000d0: 46fe 013e ab16 4d3d de91 523c 9a23 473b
000000e0: 1cf2 423d 024c 64be 7f60 5cbd d7e1 133d
000000f0: 9b7d 983d 92c8 72bd b44d 7cbd fb15 06bd
00000100: 8ed5 9a3d 9c9f a63d 69cb 733e 049d bebc
00000110: 9c3b 583d 58eb debc a907 44bd 410f 5ebc
00000120: f526 ee3d ef1c 2c3b c5d0 b03d 1e79 5d3e
00000130: caef 16bc 15a2 07bd 6c5c 6a3d cedc 19be
00000140: 7460 08be 8da4 d53d 2fe4 2fbd 2a35 f13d

fc3.weight f4 [10, 84]
-0.021543685 -0.09709483 0.33725867 0.12541375 -0.02345433 0.064970694 -0.11613433 0.2106023
0.043207698 -0.16901174 0.06892884 -0.34692731 -0.0006349722 -0.2990457 -0.17350578 -0.18812753
-0.18884793 -0.078171216 -0.12282973 0.2129386 0.18916328 0.26240322 -0.22472414 -0.12942308
0.34955955 -0.013946258 -0.4477595 0.01989653 0.2414217 -0.24459594 0.19496821 -0.27427524
0.0017496538 0.13453493 0.004698536 -0.20583643 -0.04064045 -0.111004375 0.080368966 0.18919791
0.03855017 -0.13693117 -0.16577227 -0.27882323 0.3351257 0.3102555 -0.3121332 0.25534937
0.46807593 -0.041259024 0.051605996 -0.045906223 -0.26605785 -0.03071094 0.14054057 -0.012403752
0.25079715 0.016979035 -0.039153654 0.5253888 -0.3808371 -0.034658883 -0.14035587 0.25119278
0.00066961953 -0.04763782 -0.24170732 0.25032055 -0.14961933 -0.020804657 -0.068964556 0.1216377
-0.15039515 0.36804923 0.25386694 0.20283537 0.07259713 -0.32307893 -0.07596553 0.1946397
0.22329825 -0.4239984 0.18594651 0.37257725 -0.04067062 -0.03227929 -0.046093684 0.078847855
-0.06583233 -0.13292994 -0.10382329 0.036718134 -0.47115102 -0.6136537 0.050903562 0.09356391
0.31758356 0.0515973 0.58106923 0.11769149 -0.028492827 0.03307274 0.23602574 -0.33831972
-0.1939055 0.16275269 0.14337505 -0.031878702 0.08891149 -0.22040944 -0.21861127 0.05573048
-0.008138997 -0.15094735 -0.090464406 -0.2579199 -0.10262272 0.25819695 -0.22843991 0.0880581
0.32367846 -0.13230544 -0.009410996 -0.1771528 0.06255166 0.08654462 -0.31680143 0.2966316
-0.003877173 0.005778714 0.33581874 -0.3824279 -0.16171917 0.13412005 0.18018626 0.022717891
-0.15405552 -0.23037744 0.43630046 -0.019896464 -0.23564951 0.3564248 -0.06875717 -0.101835944
0.21771848 0.018708427 0.027319267 0.34683087 0.04429385 0.06133088 -0.11400861 -0.15611872
0.0401222 -0.07778419 0.11025105 0.27006543 -0.26519787 0.12148128 -0.21887958 0.0010718219
-0.062637836 -0.19767796 0.09165313 0.20852865 -0.2426267 0.08221523 -0.028292336 -0.35043275
0.22204155 -0.25580156 0.110775664 -0.27110642 -0.080018744 0.2021154 -0.043095943 -0.13268466
0.49724308 -0.28343615 -0.024793351 0.31550497 0.03141449 0.070831485 0.113311894 -0.30118284
0.14419012 0.05284754 0.21121559 0.33966437 -0.10110132 0.2589991 -0.02494067 -0.04090069
-0.20434487 -0.30201495 -0.019077688 -0.10451829 -0.15032665 0.29788676 0.33500183 0.2558592
0.0030064262 -0.21713075 0.19969349 0.09764108 -0.197231 -0.04404435 0.15515105 0.08434936
-0.13403986 -0.14913441 0.2251245 0.29414645 -0.14758895 -0.2815147 -0.09566229 0.31786153
0.23047377 -0.08646325 -0.42038748 0.35369736 -0.36575636 0.18104514 -0.40743548 0.03918057
-0.09869287 -0.0008557083 -0.16252713 0.48058626 0.21265118 0.04408611 -0.027746864 -0.2874413
0.27607545 0.0677377 -0.15523642 0.13602082 0.33131972 -0.06473997 -0.026165461 0.06477763
-0.019928863 -0.017328367 -0.13700713 -0.36308742 0.033560473 0.1246326 -0.033742547 -0.13032757
0.40314943 0.19554989 -0.04509405 0.060515873 0.18296555 -0.12365999 0.029012695 -0.040184554
00000000: 627c b0bc a7d9 c6bd 2bad ac3e 766c 003e
00000010: 4c23 c0bc 5b0f 853d d6d7 edbd 21a8 573e
00000020: 8efa 303d 6a11 2dbe 902a 8d3d 75a0 b1be
00000030: 4374 26ba 851c 99be 80ab 31be 81a4 40be
00000040: 5a61 41be 3b18 a0bd 278e fbbd 940c 5a3e
00000050: 05b4 413e b759 863e 161e 66be 7c87 04be
00000060: 78f9 b23e d97e 64bc bc40 e5be 0cfe a23c
00000070: 4037 773e 5c77 7abe bfa5 473e ce6d 8cbe
00000080: a454 e53a 86c3 093e 2df6 993b c9c6 52be
00000090: 9a76 26bd 4356 e3bd 7c98 a43d 19bd 413e
000000a0: c8e6 1d3d af37 0cbe 35c0 29be ebc1 8ebe
000000b0: 9995 ab3e cfd9 9e3e eccf 9fbe 27bd 823e
000000c0: a6a7 ef3e 39ff 28bd cf60 533d 2a08 3cbd
000000d0: bc38 88be 8295 fbbc dee9 0f3e 1b39 4bbc
000000e0: 7c68 803e 9e17 8b3c 955f 20bd e17f 063f
000000f0: 15fd c2be 79f6 0dbd 73b9 0fbe 579c 803e
00000100: 6889 2f3a e01f 43bd 2082 77be 042a 803e
00000110: cf35 19be 876e aabc 4a3d 8dbd 301d f93d
00000120: 3001 1abe f370 bc3e d9fa 813e 13b4 4f3e
00000130: cead 943d 9a6a a5be d193 9bbd a14f 473e
00000140: 4ca8 643e 5116 d9be c368 3e3e 72c2 be3e
00000150: 3c96 26bd 4a37 04bd bbcc 3cbd fc7a a13d
00000160: 1ad3 86bd c91e 08be 4ea1 d4bd c165 163d
00000170: b53a f1be 6918 1dbf 4180 503d 6f9e bf3d
00000180: 509a a23e b157 533d f4c0 143f 3c08 f13d
00000190: ca69 e9bc 4877 073d bbb0 713e 3e38 adbe
000001a0: 2a8f 46be a4a8 263e e9d0 123e 3e93 02bd
000001b0: 3a17 b63d 03b3 61be a2db 5fbe a545 643d
000001c0: 6d59 05bc f191 1abe 6745 b9bd 140e 84be
000001d0: dc2b d2bd 6432 843e 27ec 69be ce57 b43d
000001e0: 2fb9 a53e 147b 07be 9430 1abc 8b67 35be
000001f0: 161b 803d 4e3e b13d cc33 a2be 19e0 973e
00000200: 2b18 7ebb 5e5b bd3b 6ff0 ab3e 97cd c3be
00000210: b699 25be c456 093e bf82 383e df1a ba3c
00000220: bbc0 1dbe 10e8 6bbe c662 df3e e9fd a2bc
00000230: 1b4e 71be 507d b63e 8fd0 8cbd 5d8f d0bd
00000240: 98f1 5e3e 6a42 993c a8cc df3c d193 b13e
00000250: 786d 353d 1736 7b3d 597d e9bd 96dd 1fbe
00000260: 2d57 243d 514d 9fbd 4dcb e13d 0446 8a3e
00000270: 04c8 87be 2dcb f83d f821 60be 607c 8c3a
00000280: 4448 80bd 176c 4abe a3b4 bb3d 8988 553e
00000290: 2273 78be 7560 a83d 54c5 e7bc ec6b b3be
000002a0: dc5e 633e 6cf8 82be 5ade e23d 76ce 8abe
000002b0: dee0 a3bd 57f7 4e3e 5f85 30bd 7dde 07be
000002c0: a596 fe3e 8b1e 91be 6d1b cbbc de89 a13e
000002d0: 7bac 003d 1910 913d 1110 e83d a334 9abe
000002e0: 93a6 133e a976 583d e648 583e 7de8 ad3e
000002f0: 350e cfbd 889b 843e 6050 ccbc 7b87 27bd
00000300: c83f 51be b4a1 9abe d048 9cbc af0d d6bd
00000310: 3bef 19be 9d84 983e 5c85 ab3e faff 823e
00000320: 7607 453b 8657 5ebe 737c 4c3e 0cf8 c73d
00000330: ecf6 49be d967 34bd ebdf 1e3e 5bbf ac3d
00000340: bf41 09be b1b6 18be 0987 663e 5d9a 963e
00000350: 8f21 17be b222 90be 97ea c3bd bfbe a23e
00000360: 5101 6c3e a513 b1bd 073d d7be d217 b53e
00000370: 6b44 bbbe e663 393e 629b d0be ce7b 203d
00000380: 7d1f cabd 9d51 60ba 836d 26be 670f f63e
00000390: 3bc1 593e a393 343d 644d e3bc 822b 93be
000003a0: c359 8d3e 10ba 8a3d 4cf6 1ebe 0b49 0b3e
000003b0: bda2 a93e 6496 84bd f358 d6bc 22aa 843d
000003c0: db41 a3bc 38f4 8dbc 994b 0cbe 98e6 b9be
000003d0: b576 093d 603f ff3d a035 0abd 9774 05be
000003e0: 9a69 ce3e 3b3e 483e 8ab4 38bd 7edf 773d
000003f0: 525b 3b3e 7341 fdbd 08ac ed3c 8f98 24bd

fc3.bias f4 [10]
-0.13116759 -0.4000118 0.07832811 0.13530102 0.36569077 -0.0011789054 -0.0108286245 -0.19723943
0.36676776 -0.34174085
00000000: cc50 06be 59ce ccbe 7d6a a03d 5a8c 0a3e
00000010: d23b bb3e 8085 9aba 8b6a 31bc 22f9 49be
00000020: fcc8 bb3e a8f8 aebe
