trained_net.pth (torch, 369029 bytes, 10 tensors)

conv1.weight f4 [12, 3, 5, 5]
00000000: 6895 803e f84c 9b3e 9b79 de3d e397 503e
00000010: 0006 183d e7a0 203e 01a4 023d da52 023c
00000020: c1e3 303d f826 8dbd 9314 4b3e b302 dd3c
00000030: 5434 e13d 4e72 cb3d 9924 bcbd 3b34 cb3d
00000040: 150b 7bbd f179 2abe 3ab5 48bd 49ea 73bd
00000050: 9629 48be e6f5 a6be e207 88be 45ff 55bd
00000060: 997b 0bbe 7c0f 863e 970e 3f3e 8126 3b3e
00000070: 748c 1e3e f888 963d 9c7f a63d 6490 c83c
00000080: bd71 1fbe ede6 bbbd 8d47 46be 8dc2 f13d
00000090: d92a b6bd 185b e2bd 8424 4dbc 539a 10be
000000a0: 6357 db3c 7c89 adbd 1845 acbd 20d3 3dbe
000000b0: 47a9 c5bd fee7 ebbd 6048 2abe cb3e d5bd
000000c0: 931f e5bd a950 97bd 30e8 2e3e 8b4e 493e
000000d0: 4e41 053e 8efb 2f3e be1e fabc da0d c7bd
000000e0: 6a04 093d 4777 3cbe 987c 2bbd ccbd 1fbe
000000f0: 2818 b6bc 2702 b8bd 69ad 26be 6509 2abd
00000100: bfb7 d0bd 2f65 7c3e 26d6 9a3c 2133 9f3d
00000110: 6da8 e7bc a070 703c 70cf 9cb9 7d63 bfbd
00000120: 0fe0 e53d d189 383d bb63 4a3e c44f e2bd
00000130: cae2 463b 9f08 3c3c e42f 7abc 4519 623c
00000140: 8144 86be f1a0 adbe e6b4 c9be e8c6 9fbe
00000150: 6fa6 5dbe 8eb0 26be b64c 52be 1199 38be
00000160: a23c dcbd ea36 0ebe a5e2 853e fe19 393e
00000170: 3089 9e3e 43d3 5c3e 8094 fa3c 4639 e63d
00000180: a017 983e 942f a63e 8719 5b3e ed93 903e
00000190: d8a1 8f3d dbb3 75bd 8aca 593c 28e5 2e3d
000001a0: 874b b2ba 627e eabc 9b08 8cbd 9200 e5bd
000001b0: b39c 00be aac5 68bd 303f 0ebe 6ee8 4b3c
000001c0: 3133 81be 6a42 62be 8dc8 4dbe f4b1 443d
000001d0: 4465 e23d 15dd 8b3e 0734 843e 0360 9c3d
000001e0: d498 763d 17d4 253e 3ccc 7f3e 1cc4 0b3e
000001f0: 9f8e 56bc 6948 8bbc 43b9 873c bc80 133e
00000200: 21a2 973d be79 0e3e 212f 953d 6898 07be
00000210: 88a6 89be 44fe 17be d59e b6bd a8c6 59bd
00000220: ee48 29be 55a0 43be 6f89 50be cb05 1abd
00000230: 3fb1 a33d 54b7 db3d ae9e 9c3d c60b 303e
00000240: 4ece dd3d 8bfa b63c 4513 c0ba 60da 233e
00000250: d1e1 e13d 465b 8c3d 1a18 22be add2 46be
00000260: c759 cebc 212d 1a3e d784 903d c62d 71be
00000270: 7b86 583e 0b44 bb3e 8a41 d2bb d0bb e3bc
00000280: 8bb2 0a3e f9cc e43e 653f 533d 6bed a9be
00000290: 0121 26be c574 363e 8300 96bd 04d2 b2be
000002a0: 1fe0 ce3d e933 ed3d 2b80 cc3d 5f6f fabd
000002b0: 3139 56bd 2e92 063e bb0c b03d 2db4 bdbd
000002c0: b0fa 26be 3ebd 9ebd 64c3 a63d b36f 013e
000002d0: a458 9dbe 9dd1 523e 0c52 813e c107 db3d
000002e0: 696a d0bd 6ece c63d 570c e13e 8db0 e8bb
000002f0: 7b7e a0be 0d69 88be 2a09 573e e2d2 1dbe
00000300: 2748 a7be 8b35 69bc e2be 513d 2e7f 9dbc
00000310: a88c 91be bb7e 57bd 1b42 623b 64ce 883d
00000320: 98cf d6bb 1728 abbe 36b1 013c c5bc 2f3d
00000330: 2c03 1cbd a019 a1be 5dab 4bbc bd55 9d3e
00000340: ed48 b4bd 48f6 be3d e809 9a3c 038b b03e
00000350: 86b5 103e b1f5 4dbe 43b7 fabd d887 4a3e
00000360: 9f4f 0abc 1c32 a6be f7f1 a23d ef3a 143e
00000370: 45d5 923c 68c1 80bb 345a 9f3d de8f 4a3e
00000380: af1f 103e d6f1 9cbe bb4c 953e 043f 26be
00000390: e346 9dbe 60c4 513e 83bb 8abe 6a54 7e3e
000003a0: 9da0 b03d 5a27 99be 777a a93e 65b9 eebd
000003b0: 81da b93e 4f62 9f3d f7eb 90be 1644 3c3e
000003c0: 3e8a 79be 4269 393e a5f8 24be 1344 77be
000003d0: 3e23 073e 90ff 04be 5a31 733e 4f02 c03d
000003e0: 1238 2abe 99eb 083e 7be0 87be 3b8f c23e
000003f0: 8f6e 663d d815 f4be 7951 2e3e a6f2 9abd
0.25113988 0.3033216 0.10863038 0.2037044 0.037115097 0.1568638 0.031894688 0.007954324
0.043185953 -0.06892198 0.19832067 0.026978826 0.10996309 0.09933911 -0.09186668 0.099220715
-0.061289866 -0.1664808 -0.049000956 -0.059549604 -0.19547114 -0.3260948 -0.26568514 -0.052245397
-0.13621368 0.2618369 0.1865791 0.18276407 0.15483266 0.073503435 0.08129808 0.024482913
-0.15570731 -0.09174905 -0.19363232 0.11804686 -0.08894891 -0.11052531 -0.012520913 -0.1412137
0.026775068 -0.08473489 -0.08411616 -0.18537569 -0.09651428 -0.115188584 -0.16629171 -0.104123674
-0.11187663 -0.073884316 0.1708076 0.19658868 0.13013193 0.17185804 -0.030532237 -0.09719439
0.033451475 -0.18404876 -0.04186687 -0.15599746 -0.022228315 -0.089847855 -0.16277088 -0.041512866
-0.10191297 0.24647973 0.018900942 0.07773424 -0.028278554 0.014675289 -0.00029909192 -0.09345148
0.112243764 0.045053307 0.19764607 -0.1105037 0.003034758 0.011476665 -0.015270207 0.01379997
-0.2622414 -0.3391185 -0.39395827 -0.3120644 -0.2164552 -0.16278288 -0.20537075 -0.1802714
-0.10753752 -0.13888136 0.2614948 0.18076321 0.3096404 0.21564965 0.030588388 0.11241393
0.29705524 0.32458174 0.21396457 0.28237858 0.07013291 -0.059985977 0.013292918 0.04269901
-0.0013602831 -0.028624717 -0.06837579 -0.111817494 -0.12559776 -0.056829132 -0.13891292 0.012445552
-0.25234368 -0.22095647 -0.20096035 0.04802127 0.11054471 0.2731711 0.25820944 0.076355
0.060204342 0.16194187 0.24980253 0.13649029 -0.013095527 -0.017002301 0.016567832 0.14404577
0.074039705 0.13913628 0.0728438 -0.13241732 -0.26884866 -0.14843088 -0.089170136 -0.05316797
-0.16531727 -0.1910413 -0.20364927 -0.03760318 0.079927914 0.107283264 0.07647453 0.17191991
0.10830365 0.022336265 -0.001465418 0.16001272 0.11029399 0.068533465 -0.15829507 -0.19416304
-0.025189294 0.15056278 0.07056587 -0.23552617 0.2114505 0.3657535 -0.0064165043 -0.027799517
0.13544671 0.44687632 0.05157413 -0.33188948 -0.16223527 0.17817982 -0.07324316 -0.34925854
0.101013415 0.11582167 0.099853836 -0.122282736 -0.052300636 0.131417 0.08596178 -0.092628814
-0.16306567 -0.07750939 0.081427366 0.12640266 -0.3073169 0.20587774 0.2525791 0.10694838
-0.10176546 0.09707342 0.43954727 -0.0071011246 -0.31346497 -0.26642647 0.2099959 -0.15412477
-0.32672235 -0.014233957 0.05120743 -0.019225683 -0.28427625 -0.052611094 0.0034524265 0.06679991
-0.006555509 -0.33429024 0.007915786 0.042904634 -0.038088962 -0.31464863 -0.012430993 0.30729476
-0.08802972 0.09324318 0.018803552 0.34481058 0.14131746 -0.20113255 -0.12241986 0.19778383
-0.008441835 -0.32460105 0.079563074 0.14475606 0.01792396 -0.003929306 0.07780877 0.19781443
0.14074586 -0.30653256 0.29160103 -0.16234976 -0.30718145 0.20485067 -0.27096185 0.24836889
0.086243846 -0.29912835 0.33101246 -0.11656455 0.36299518 0.07782423 -0.28305027 0.18385348
-0.24369141 0.18106559 -0.16110475 -0.24147062 0.13197038 -0.12988114 0.23749295 0.0937544
-0.16622952 0.13371123 -0.26538453 0.379999 0.05625778 -0.47672915 0.17023267 -0.07565813

conv1.bias f4 [12]
00000000: 9213 82bd 7ed5 f4bd 5246 07bd a519 a7bd
00000010: b7df 5dbe 500a 023f 095e debd 33c7 873e
00000020: 0e48 91bd 3b24 4cbd 2419 833e 8911 c6be
-0.06351389 -0.11954783 -0.033026047 -0.08159188 -0.21667372 0.50796986 -0.108577795 0.26519164
-0.070938215 -0.04983924 0.25605118 -0.38685253

conv2.weight f4 [24, 12, 5, 5]
00000000: 7ee6 efbb f0f1 093e 8a4d 913d a375 46bc
00000010: 7707 2a3c 9ce3 5d3d 5a50 103e effe 0dbd
00000020: eaed de3c 1524 fa3c 36dd cf3d 58ce fd3c
00000030: ece1 87bd 27a0 663c a14d 13bd 4708 873d
00000040: fe47 f1bc 7203 823c e6d4 eb3c f7f0 debc
00000050: b6f2 ef3c d0c6 4abb b0c9 213b 0103 80bd
00000060: 6edb bfbd 91f9 063d 7c00 4a3c a303 2cbd
00000070: f221 16bd fce1 b6bd 50eb 98bd a3a4 5ebd
00000080: 06e3 1c3d 4d08 c9bd baf9 4f3d aa7a 47bc
00000090: 06af 603d fc89 723c 743d a5bd fb93 68bd
000000a0: 233f fbba 10cb 273d 1df4 9a3c 2bda 41bd
000000b0: 0cac 973c dfc3 f13d d345 d13d 4bf6 3d3d
000000c0: bf73 38bd c198 6fbd 915b 143d 784f 203c
000000d0: 4d71 18bd 88d0 06bc 3a90 583d 4369 5b3d
000000e0: 8d0a bb3d 7e78 0cbd 3903 7ebb 7e56 513d
000000f0: ca0b 333c 1a7f e13c 81b4 8c3d a1f8 e13c
00000100: b171 013e 78f2 cd3d 5062 123d 1d68 6d3d
00000110: c03d 8d3d fa15 813d 9743 353a ed7a 51bc
00000120: bdf2 023e 7520 913d ea85 cb3d 436a 43bc
00000130: f40e 3dbd 0378 0a3d 5652 bbbc 24c4 61bd
00000140: 0531 273d 38d9 0e3d 1dab 10ba 41fb 19bc
00000150: 8ecc b9bd 8f2a 593b 8c8b 9a3c 53d2 5a3d
00000160: ec69 47bc 5e45 233d 4895 a53d 8c5e 85bc
00000170: 1c8f 2c3d bb57 913d 816d 493c e39e ecbc
00000180: 9490 28bd 508f 34bd cc85 6e3c 9789 18bc
00000190: c59a 91bc 876b 903c 2c17 5a3d cef7 75bd
000001a0: 8e00 103a e0e7 03bd 1e97 0e3b 1169 9c3c
000001b0: 6d1c b2bc de65 9abc 42dd 40bd 26ee 93bd
000001c0: dd07 48bd bd93 643b 508e 5dbd 706d 6c3b
000001d0: 725b 01bd de24 04bd 4192 bebd e5a5 d4bc
000001e0: 8862 263d 3c4b adbd f56b 08bd 061b 01be
000001f0: 2d64 c0bd 491e 323d 4c70 893d 0db0 6fbd
00000200: bbd6 27bd cf2c 2cbe 798d 243d bd2c 16bc
00000210: 0ac2 5ebd 5990 a7bc 4ed9 e8bd ebc7 bf3d
00000220: cc94 393d 0da4 ffbc 0161 76bd 13f7 0ebe
00000230: 6330 d83d 2746 203c 1d1d 60bd 3243 1cbd
00000240: cdd3 d4bd 0aad e23d fdc9 a63d 659b 2f3d
00000250: 7462 1abd 715a f6bd 9b74 d13d 34a4 0e3e
00000260: e309 bf3c 0921 5e3d 0cd2 013d 5f43 073e
00000270: 021e 053e 2945 083d 1e72 9bbb 3898 2639
00000280: f560 433e e713 01bc 15ba 263d e6fe 4c3d
00000290: ed4b 44bd 1490 893d bb45 05bd 41da 193d
000002a0: 6f1e 4abc 659d 77bc b36a 343d b5ce 8e3b
000002b0: 3f55 4bbb 9b6d 58bd fdee ce3b 5f49 b2bc
000002c0: 648b 433d f694 5bbd b3c4 7b3d c9fc ad3c
000002d0: 530a 68bc 4d59 febc 2d09 34bd 3875 2fbd
000002e0: 6a70 4dbd e047 13bd 3fb8 243c ba45 00bc
000002f0: 84db 92bc 6aaa 9f3c 7762 6b3c 4d0b 06bd
00000300: 5efe acbc 679e cc3b 6a43 ecbc 26b9 4cbd
00000310: fca9 b93c 243c 913b f8b3 c03c c086 4b3d
00000320: 3ec7 ac3c 1213 4c3d 407b 1f3d 82f2 273d
00000330: 674f 013e 2447 b53d a120 873c 281a a53c
00000340: 841b d53d cfa6 c03d 7d14 0a3e f4cd 43bd
00000350: 26f0 b0ba 7927 603d 086f 37bd d94b 603d
00000360: ca2f 73bd 3350 463d 3c24 9b3d 2bc2 53bb
00000370: ac96 00be f86a 0fbe e55b e3bc 12a5 c3bd
00000380: 8b4e a4bd 06d3 afbc a5c7 d7bd 274b 8dbd
00000390: bba4 e1bc a6a6 5ebd 7d70 e7bd 9eca 95bd
000003a0: f4e0 35bd 2819 2f3d 80dc 4ebd b674 91bd
000003b0: a565 9d3d 7331 493d 223d 59bd 1fbf fcbb
000003c0: b6e1 be3c 5772 803d a4c1 5e3c dd51 d9bc
000003d0: 4474 c93d 3969 1bbb 7c87 a03c e6db 4abd
000003e0: a7a5 0e3d 92af e03c df22 9ebd 261e 8bbc
000003f0: 0152 efbd 38f2 01be 2053 acbd f09c d03a
-0.007321178 0.13471198 0.070948675 -0.012113008 0.010377756 0.054172143 0.14093152 -0.03466695
0.027213056 0.030534783 0.101496145 0.030982181 -0.06634888 0.014076269 -0.035962705 0.06593376
-0.029453274 0.015870783 0.028788041 -0.02721451 0.029290538 -0.0030941255 0.0024686866 -0.06250573
-0.09368025 0.03295285 0.012329217 -0.041995656 -0.036653467 -0.08929822 -0.07466757 -0.05435623
0.038302444 -0.098160364 0.050775267 -0.0121752415 0.054854415 0.014803406 -0.08068362 -0.05678175
-0.0019168596 0.04096514 0.01891523 -0.0473272 0.018514656 0.118049376 0.10218396 0.04637746
-0.04503226 -0.058495287 0.036220137 0.009784572 -0.037217427 -0.008228429 0.05287192 0.053567182
0.09132872 -0.034294598 -0.0038759245 0.051107876 0.010928104 0.027526427 0.06870366 0.027584376
0.12641026 0.10056013 0.03573829 0.05796062 0.068965435 0.0630302 0.0006914674 -0.012785655
0.1278791 0.07086269 0.099376515 -0.01192719 -0.04615684 0.03380586 -0.02286641 -0.055118695
0.040818233 0.034875125 -0.0005518662 -0.0093982825 -0.09072219 0.003313694 0.01886537 0.053423237
-0.01217125 0.039861076 0.08085114 -0.016280435 0.042128667 0.070968114 0.012294174 -0.028884357
-0.041153505 -0.044081986 0.014558267 -0.009310148 -0.017773995 0.017629398 0.053244755 -0.060050778
0.0005493247 -0.032203555 0.0021757553 0.019093068 -0.02174207 -0.018847402 -0.047086008 -0.072231576
-0.048835624 0.0034878098 -0.054090798 0.0036075972 -0.03158135 -0.03226172 -0.093052395 -0.02595801
0.04062131 -0.084616154 -0.03330608 -0.12607965 -0.09394107 0.043485913 0.06710872 -0.058517504
-0.040976267 -0.16813968 0.04017398 -0.00916594 -0.05438427 -0.020454573 -0.113695726 0.09364303
0.04530792 -0.031206155 -0.060151104 -0.13961439 0.10556104 0.009782351 -0.054715265 -0.03815002
-0.1039196 0.11068161 0.08143995 0.042872805 -0.03769155 -0.12028969 0.10227319 0.13929826
0.023320144 0.054230724 0.031694457 0.13209294 0.12999728 0.03326908 -0.0047438284 0.000158877
0.19079955 -0.00787828 0.040704805 0.050047778 -0.04792397 0.06716934 -0.032537203 0.03756166
-0.0123363575 -0.015113209 0.04404707 0.0043581375 -0.0031026152 -0.052838903 0.0063151107 -0.021763502
0.047740355 -0.053608857 0.061466884 0.021238701 -0.014162618 -0.031048441 -0.043954063 -0.042836398
-0.050156035 -0.035957217 0.010053693 -0.007829124 -0.017926939 0.01949044 0.014366738 -0.03272562
-0.021117385 0.006244469 -0.02884074 -0.04998126 0.022664063 0.004432218 0.023523316 0.049689054
0.0210911 0.049822874 0.0389359 0.041002758 0.12627946 0.088514596 0.01649505 0.020154074
0.10405639 0.09406816 0.13484378 -0.047803834 -0.0013499304 0.054725144 -0.044783622 0.054759834
-0.059371747 0.048416328 0.075752705 -0.0032311778 -0.12557477 -0.14005649 -0.02775378 -0.09552969
-0.080227934 -0.021462929 -0.10536126 -0.068991 -0.02754437 -0.054358147 -0.11300752 -0.07314037
-0.044403985 0.0427486 -0.050503254 -0.07102339 0.07685403 0.049119424 -0.053036816 -0.007713213
0.023300987 0.062718086 0.013595972 -0.026528293 0.09836629 -0.002371384 0.019595854 -0.049526118
0.034825947 0.027427468 -0.07721495 -0.01698215 -0.11685563 -0.12690055 -0.08414292 0.0015915912

conv2.bias f4 [24]
00000000: da11 02be f9f2 24be faee 183e cd9b 2c3e
00000010: 8b80 773e 7fa5 aabd a36f 2e3e eb5c fcbd
00000020: d466 743c 85a4 cf3d f790 aabd ccf3 4b3e
00000030: d03e d3bc 0724 893e e233 a4be 8b4a e7bc
00000040: d859 b03d 22b1 1c3e 6c49 013e 6afe a23e
00000050: 50d1 babd 537b a0bd 0716 54bd 1ccc b7bd
-0.12702122 -0.16108312 0.14934912 0.16856308 0.24170129 -0.08332347 0.17034774 -0.1232241
0.014917094 0.101388015 -0.08328431 0.1991722 -0.025786787 0.267853 -0.32070833 -0.028233787
0.08610886 0.15301946 0.12625664 0.31834728 -0.091219544 -0.07836022 -0.05177882 -0.08974478

fc1.weight f4 [120, 600]
00000000: f46f 413c 3bee dc3b 0ff6 683a a553 3d3c
00000010: 213a 0ebd 7e73 1bbd 423e 17bc 84fa 88bc
00000020: 5707 8cbc 98cd 26bb 8ac4 793c 8644 a93c
00000030: eb06 bebc 4ff2 c83c a4ed dbba 4107 acbb
00000040: 09ba 61bc 5e08 b8bc 97b6 1fbd 5698 9b39
00000050: fbd6 96bc 4ce1 d3bc de44 8d3c b298 e9bc
00000060: 6fe3 0cbd 69a6 79bb 52d7 a2bc 6894 03bd
00000070: 7d03 f33c 1ed7 17bd 00f9 0abd 04a3 7dba
00000080: 0351 183d e17b 84bb a9af 90bc d927 fd3c
00000090: 170f eb3c 970e d53c 9fb3 bf3a ab0d cdbc
000000a0: 7127 fbbc b363 013d 021f 0bbd 21a7 9d3b
000000b0: d76d 693c 9c5e d1bc c176 f1bc c562 b23c
000000c0: 27b1 c7bc 93ee 5e3c 3f9d 24bd 4392 1dbd
000000d0: 596d 1e3d ccc3 f5bb a981 1abc b224 0abd
000000e0: 7679 bc3c 6d4c 973c 67f9 873c da2f 203b
000000f0: 27f1 073d 13aa 85bb 7f75 103c 514a bc3c
00000100: 198b 07bb bf09 95bc 71b9 903c 64ce 5e3c
00000110: 40cb 7e3b 425d 4ebb 553b 083d ed2c b1bc
00000120: 8407 6f3c 414b d3bc 2399 edbc 27f6 94bc
00000130: 01a3 21bd 53e9 213d 125e c8bc 77c3 e3bc
00000140: 12df f4bc e780 ed39 cbfa 183d a996 903c
00000150: c895 c33c 8e64 fcbc 7994 67bc fe04 bcbc
00000160: de8d 3fbc cab1 b53c b481 2a3c 1e14 bc3c
00000170: 0044 263c 2f64 b13c d87f e83c dfd4 e3bc
00000180: 50af 18bd dbd9 adbc 8ac1 af3c cc97 9d3b
00000190: bb54 b23c 850f b53a 9156 e13c 15eb 19bd
000001a0: c28b 113d d2dd e43c 8386 aa3c 80c1 28bd
000001b0: ba73 cc3c 4843 033c 3111 e8bc 949e 903c
000001c0: 8bf3 db3a 8fb9 553c 74f9 cfbc b3eb 623c
000001d0: 1499 bcbc 0e37 813b cfa9 0dbd e649 b03c
000001e0: eaf1 8dbc 97ed c4bc 055a 9b3c fd9c 103d
000001f0: 4a47 c4bc 1982 54bc 106a 29bc 9618 06bc
00000200: bb69 f8bc 4b55 cf3c 7923 4bbc a4d0 e53a
00000210: 2c41 b0bc 713a 413c b16a 0fbd 3ac8 d9bc
00000220: a059 c43b 529c bfbc 96e7 f8bc 9ee3 133d
00000230: 4827 3abc 248f 3f3c be03 8cbc 9e0a ebbc
00000240: dde8 d73c 092e c23c 06e2 a53c c639 b1bc
00000250: 71d0 533c 66e7 55bc 98b4 eabc c6c9 d8bc
00000260: 8bc6 07bd 2a92 6b3c 38e4 c53c 5579 ffbc
00000270: aada 223c d43b 003c 66a3 15bd 0d86 89bc
00000280: 1b84 0abd 3142 1d3d dd03 ebbc 0656 e03c
00000290: ca9f 99bc 41a5 e7bc 7a7b 9fbc 70b9 883c
000002a0: 2f5d 27bd c38d 8dbc 3f84 aa3c 0cb1 1abd
000002b0: 85dd 073c 6bb7 a6bb 5db8 393b 99f6 62ba
000002c0: f6bc 74bc 14e8 aebc 3de6 d33b aa1f debb
000002d0: 0a24 f83a bec8 0b3d 2d46 86bc e2f7 c1bc
000002e0: bf43 813c 1bf8 9c3c d75e 96bb 2934 843c
000002f0: bfe5 4dbc 6859 d63b 3e50 02bd edc2 ebbc
00000300: 9f3d 90bc f8e7 0bbc 8659 eb3c 1b56 9bbc
00000310: 5346 993c 6baf 1a3c a947 1f3c 6778 fb3b
00000320: ba64 d2bc cbad 18bd 46dd 71b9 a8e5 9dbc
00000330: 5654 0c3d 04f9 0e3d 78b6 a53c 9e07 abbc
00000340: 827d 21bd 571a 103b 919f d3bc fdb8 fc3c
00000350: 24e1 01bc 255c 80bc 07d1 a9bc 48ba 65bc
00000360: e525 ecbc d4ac 50bc b6e9 c23c 4ec7 f3bb
00000370: a956 13bd d203 683c 868a ecbc 4de2 b7bc
00000380: d34b 953c 363f 00bd 3f5a 163d 1ede 1939
00000390: bd57 a33c 1e8c 193d 3b49 063d e062 083d
000003a0: 8f9e 28bd e087 943c aa1f 19bd 4ead d7bc
000003b0: b736 1fbd a9e1 5dbc e0cb 013c a002 073c
000003c0: 0684 df3b 7432 8a3b ded8 00bc 3984 5dbc
000003d0: 4ddf d9bc cb29 37bc 4503 a03c 7a02 1fbd
000003e0: 0fa8 bf3c 227d 96bb e2c1 11bd 31c4 643c
000003f0: a957 15bd 1c53 d23c 5c9f 88bc a52b 863b
0.011806477 0.0067422665 0.0008886763 0.011555587 -0.034723405 -0.03795194 -0.009231152 -0.016721018
-0.017093344 -0.0025452133 0.0152446125 0.020662557 -0.023196658 0.024529604 -0.0016779196 -0.005249888
-0.013777264 -0.022464927 -0.03899249 0.00029677403 -0.018413058 -0.025864266 0.017244752 -0.028515194
-0.034396585 -0.0038093573 -0.019878063 -0.032123953 0.02966475 -0.037070386 -0.03392887 -0.00096754753
0.037186634 -0.004043088 -0.017661886 0.03090279 0.028693719 0.026007934 0.0014625675 -0.025030931
-0.030658456 0.03158922 -0.03396512 0.004811183 0.014247379 -0.025557809 -0.029475572 0.021775613
-0.024376465 0.013606685 -0.040189024 -0.038469564 0.0386785 -0.0075001474 -0.009430327 -0.0337264
0.023007136 0.01846906 0.016598416 0.0024442584 0.033188965 -0.0040791123 0.008817076 0.022984656
-0.0020682274 -0.018193124 0.01766655 0.013599012 0.003887847 -0.0031488691 0.03325971 -0.021627868
0.014589194 -0.02579272 -0.029003685 -0.01818378 -0.039462093 0.039529156 -0.024458919 -0.027803166
-0.029891524 0.00045300202 0.03734855 0.017649965 0.023875132 -0.030809667 -0.01413452 -0.0229516
-0.011691539 0.022179503 0.0104069 0.022958811 0.010148048 0.021654217 0.028381273 -0.027811466
-0.037276566 -0.021222046 0.021454591 0.0048093554 0.021768918 0.0013813829 0.027507098 -0.037577707
0.035533674 0.027937803 0.020816093 -0.04120016 0.024957526 0.008011647 -0.02832851 0.017653741
0.0016780955 0.013044729 -0.025387503 0.01385014 -0.023022212 0.0039433306 -0.03458577 0.021519613
-0.017327268 -0.024039073 0.018963823 0.035305966 -0.023959775 -0.012970471 -0.010340229 -0.008184573
-0.030323854 0.025309226 -0.012398594 0.0017533493 -0.021515451 0.011793719 -0.03501386 -0.026584733
0.0059921294 -0.023389969 -0.030383866 0.036105745 -0.011361904 0.011691842 -0.017091628 -0.028691586
0.026356155 0.023703592 0.020249378 -0.021633994 0.012928114 -0.013055658 -0.028650567 -0.0264634
-0.03314833 0.01437811 0.024156675 -0.031185785 0.009939829 0.007826764 -0.036532782 -0.016787553
-0.03381739 0.038393203 -0.028688366 0.02738477 -0.018752951 -0.028277041 -0.019468058 0.016689986
-0.04086035 -0.017279511 0.020815013 -0.0377665 0.00829256 -0.005087783 0.002833865 -0.0008657962
-0.01493763 -0.021350898 0.0064666555 -0.006778677 0.0018931639 0.03412699 -0.016390884 -0.02367777
0.015779374 0.019161275 -0.0045889425 0.016138153 -0.012566983 0.00654142 -0.031814806 -0.028779471
-0.017607508 -0.008539192 0.028729212 -0.018961957 0.018710291 0.009441237 0.009721675 0.007674265
-0.025682796 -0.037275117 -0.00023065982 -0.019274548 0.034260117 0.03490545 0.02022861 -0.020877656
-0.039426334 0.0021988356 -0.025832923 0.030849928 -0.007927213 -0.015668938 -0.020729555 -0.014021464
-0.028826663 -0.012736518 0.023793083 -0.0074395305 -0.035971317 0.014161067 -0.028874647 -0.022446776
0.018224632 -0.031310283 0.03670716 0.00014673962 0.019939298 0.03748714 0.03278468 0.03329742
-0.04116684 0.018131196 -0.037383713 -0.026327755 -0.03887054 -0.013542571 0.007922143 0.008240372
0.0068211583 0.0042174403 -0.007864205 -0.013520294 -0.026595736 -0.011179398 0.019532809 -0.03882072
0.023395566 -0.0045925537 -0.03558529 0.013962791 -0.036460552 0.025674395 -0.016677551 0.0040945583

fc1.bias f4 [120]
00000000: 4f96 6dbc 9654 a73d 42c5 b03d 7aa8 a9bd
00000010: 3afa 903d 1d75 633c eef7 b5bb abc2 eabc
00000020: 0402 eb3b eb1c 4d3d b1c1 053e 6148 123d
00000030: a445 563c f716 ccbd 96ed cd3d f24f 6ebd
00000040: a14c bd3c 281b 06bd d89c 173d 0f56 803d
00000050: c51b 03bd 8006 1f3c e05a 34bd 5f20 4bbd
00000060: 9135 8d3d e330 033d 616b 4d3d 11a0 113e
00000070: 5ff7 f7bb b0e4 eebc a03d 1d3d a39d 0d3d
00000080: 0cfc 743d ff10 7dbc 7e47 02bd 5c56 72bd
00000090: e162 89bc 6b60 cebb 78ee fbbc 3741 bd3c
000000a0: e3b2 a83d b21c cd3d 2110 13bd be60 38bd
000000b0: 1d56 f83c e1c9 3f3c 8822 8f3c ec3d 7e3d
000000c0: b7cd 813d b029 1f3e d13d aa3c d19f 14be
000000d0: 6d29 b73c 1f4a 21bb e797 17bb 9b76 823d
000000e0: 6641 933d 46f9 eabc 5e16 5dbd 5891 afbb
000000f0: dba8 87bd b8b8 8cbc a3ec 3f3c cc79 aa3c
00000100: 08f6 81bd 43a0 ca3c cbe0 0bbc ccb2 f239
00000110: ffc6 7f3c c18d 463d 9cec 64bd b1ef 88bc
00000120: 7e6e 9d3c 8fd5 eabc 70b6 043d b14e d23b
00000130: 9d0a 3cbd 9846 ffbb b73a 0dbc 5b94 163d
00000140: 4428 153c 79b5 edbb 4d78 6bbb 5d3a f8bb
00000150: 2956 493d 3833 4abc 6dea 253d 3125 e83c
00000160: 9c4c 2cbd 14d0 bbbd d1e8 bd3c 814a 043b
00000170: 34c3 07bd 2a99 7fbc 8841 e3bb e342 32bc
00000180: 883b e0bc 9c4c 01bd 5117 c93c b472 d03b
00000190: 146c e6bc 99bd d6bc 075e 7cbd d607 293c
000001a0: 28db 4f3d 3e9d 0c3d c4b6 0aba 518c 55bb
000001b0: f496 6cbd 324d 95bc 7992 2ebd 1c1e 5abd
000001c0: 3a95 28bd 1da0 223c 8480 343b 9876 783c
000001d0: 16df 9fbc 8351 a03d 4dca 88bc 32d2 3e3c
-0.014501168 0.0817043 0.08631374 -0.082840875 0.07078977 0.013882902 -0.005553237 -0.028657278
0.007171871 0.050076406 0.13062169 0.035713557 0.013078127 -0.09965318 0.100550815 -0.05818171
0.023107829 -0.032740742 0.037014812 0.062664144 -0.032008905 0.00970614 -0.044031978 -0.04959142
0.068949826 0.032029044 0.050151233 0.14221217 -0.0075673307 -0.029161781 0.03838885 0.034574162
0.059810683 -0.015445947 -0.03180646 -0.05916439 -0.016770782 -0.006298115 -0.03075336 0.023102386
0.08237245 0.10015239 -0.035904054 -0.045014136 0.0303145 0.0117058465 0.01747252 0.062070772
0.06338065 0.15543246 0.02078143 -0.1451409 0.02235862 -0.002461083 -0.0023131312 0.063702784
0.07190208 -0.028683316 -0.05397641 -0.0053579025 -0.066240035 -0.017177925 0.011714133 0.02081003
-0.06345755 0.024734622 -0.008537482 0.0004629105 0.015611409 0.04847503 -0.05588971 -0.016715856
0.019217726 -0.028666286 0.03240055 0.006418072 -0.04590856 -0.007790398 -0.008619956 0.036762577
0.009103838 -0.0072542992 -0.003592986 -0.007575317 0.049154434 -0.012341313 0.04050677 0.028338047
-0.042065248 -0.09170547 0.023182305 0.002018601 -0.033145145 -0.015600482 -0.006935302 -0.010880205
-0.027372137 -0.0315672 0.024547251 0.00636133 -0.028127708 -0.026213454 -0.06161311 0.01031681
0.050746113 0.034329645 -0.00052915164 -0.0032584856 -0.057761148 -0.018225286 -0.042620156 -0.05325137
-0.04115794 0.009925869 0.0027542422 0.015164994 -0.019515555 0.07828047 -0.016698027 0.011646794

fc2.weight f4 [84, 120]
00000000: af53 413d 3197 113d 7fbd 063e aaa1 1dbd
00000010: a3f1 06be 1ceb 02be b343 833d 0e1b ac3c
00000020: 9e0f 61bd fe24 debc ce4b ae3b 48f3 023d
00000030: e4c0 02bd a4e6 043b 9670 883d b173 27bb
00000040: d90a d03c b90f d6bd 768a 733d 41c4 36bb
00000050: d859 96bd 76d1 93bd 8f2c 11bb 1169 2cbd
00000060: d378 473b c160 49bd 9f4f 0fbe 3df0 8ebd
00000070: 6be4 bd3b 1031 c83d 8b16 40bc 97fa 183d
00000080: 8d4d ec3c e406 c53b e6fc bd3d 101a dabc
00000090: 61b9 46bc ca0f efbd 288c 143d c12a 583c
000000a0: b3e7 16bd 6ee4 1cbd 83a1 7e3d 7e6b 56bd
000000b0: ccb0 36bd cafb 7d3d 80f6 e43c ddea 8cbd
000000c0: c449 b4bc fe38 00be 3669 1d3d 6656 ce3d
000000d0: 2777 a5bd ba9d dfbc d928 84bd f813 b8bc
000000e0: abf4 09bd ed57 95bc e306 a73c 5705 8e3d
000000f0: 2ab4 073e 5e8c 643d 49b4 71bd 9a68 d2bc
00000100: 31a6 813d 2150 b43d c084 763c d3ab 71bd
00000110: e89c 733d 3412 003e 0571 b13c 9b6b babd
00000120: 45ea 98bd b0ac 84bc f7ad 613d 9ce2 0bbd
00000130: c7e4 db3d 782b 86bd 325f bd3d 62df b4bc
00000140: f6ca 033d 5bf3 853d 9176 06bb a4df dbbc
00000150: da4f ba3d d2ab abbd 6e38 c6bc d745 fa3c
00000160: 2b37 1a3e 15c9 0b3d 0b0c ed3d 26d7 243d
00000170: 20ac 0b3e 213c 583d b577 8fbd 1be8 74bb
00000180: f254 fa3d 13a7 2f3d aa5a dd3d cac4 c6bc
00000190: 21b8 93bd 907d bdba 8dfe 6b3d 733a 6c3d
000001a0: c152 863d d146 3d3d 6855 053e ecab 97bc
000001b0: 4246 5eb9 8dbe 803c 56da 64bd cc33 4bba
000001c0: 869a 163d 0f2a bfbc 2ed2 e43c 58eb bebc
000001d0: 5650 f4b9 dcad acbc 463e e6bb c674 dbbd
000001e0: 7411 f73c ed6b 78bb e9b1 b1bd 75bd e93d
000001f0: 7c01 8a3d 7cba a63b 8970 af3d 1256 84bd
00000200: e84a bbbc 5922 b0bc 7930 7abd 9a85 39bc
00000210: 1a70 673d d7a1 e93c 8d84 dbbd 43dd c9bc
00000220: b6d1 643e 8852 1b3e 5da3 bc3d bc7a 153e
00000230: 3224 6e3d b75e d3bc ebb8 503d 255e 133d
00000240: c14a 353d 1182 1a3d 5684 4d3d d9e5 0ebd
00000250: 3291 c83d bb5e 023e 902b 413c e5cd 23bc
00000260: ed7f 8b3c 3fce d5bd 8aac bdbd 2666 9b3d
00000270: d643 073e 8e62 58bd 69d2 03bd 73f4 56bb
00000280: a382 53bd b67a 0a3e 3dcf e7bd 4dd2 11bd
00000290: 67cb bf3d c43c 5f3c 5a64 6ebd 9971 a53d
000002a0: 3f54 cebd 222e 0abd e26a d2ba a927 ec3d
000002b0: 73bd 54bd 7ed9 213d 0e8e 863c 153d 1a3d
000002c0: 0938 34be 0f58 a03d bb07 e43d 4199 a9bd
000002d0: 6065 c43d ba15 41bd 2196 b6bd c273 93bd
000002e0: b9f3 e33b fe28 edbd 5879 d6bc 5810 b43c
000002f0: bcc8 83bd 58fa a73d 737b e43d 61ae a63d
00000300: 6e90 69bb 57c9 ebbd 4d92 4d3d b7ca 23be
00000310: 8113 72bb 4531 c8bb be5a 35bc b313 f5bd
00000320: 8bb7 c13d 5adc fcbc a400 7c3d a241 cfbc
00000330: 5584 eaba 004a edbc 644e afbd 0f88 893c
00000340: cc3f f9bd bc3d 853d 076d 67bd aba4 033e
00000350: 78d7 ae3c fee9 ae3c 9a7d 903d ce7d 07bd
00000360: 2904 c3bd 1735 4b3d 329e 383c e46f 5a3b
00000370: 73d0 2ebb d59d 343d 8add 9abd b43a 403d
00000380: 31b3 aabd c176 0ebe 4083 86bd d8f3 1a3c
00000390: 33a2 813d afd4 7eba 2cf8 003d 23b5 5cbb
000003a0: b1fd 533e 1256 2abd bf08 dabd f271 62bd
000003b0: a378 54bd 67f1 863d 4729 9f3d 9384 8e3d
000003c0: 8e43 9abd becc 003d a416 8abd 4f78 9bbc
000003d0: 5edb 633d 78cb 3fbd af63 a73d ff03 a63d
000003e0: 00db ac39 ccb3 6f3d d56f ffbc 1fdd c03d
000003f0: 2b55 9abd 90b3 683d b328 353c f3a3 2bbb
0.047198948 0.035544578 0.13158225 -0.038484253 -0.13178115 -0.12785 0.06409397 0.021008994
-0.054946534 -0.027117249 0.005319095 0.031970292 -0.031922236 0.0020279074 0.06662099 -0.0025551135
0.025395798 -0.104522176 0.05945822 -0.0027887973 -0.07341355 -0.07217686 -0.0022151803 -0.042092387
0.0030437007 -0.049164537 -0.13995217 -0.069794156 0.005795052 0.09774983 -0.011724125 0.037348356
0.028845573 0.0060127843 0.09276752 -0.026623756 -0.012129159 -0.116729334 0.036266476 0.013193787
-0.03684206 -0.038303785 0.06216575 -0.052348606 -0.0446022 0.062007703 0.027949572 -0.06880734
-0.02200783 -0.12521741 0.038430415 0.10075073 -0.08079367 -0.02729689 -0.064531036 -0.02247046
-0.0336806 -0.018230403 0.020389026 0.06934612 0.13252321 0.055797927 -0.059009824 -0.025684644
0.063305266 0.08804346 0.0150462985 -0.059001755 0.05947581 0.12506944 0.021660337 -0.09102555
-0.07466558 -0.016195625 0.055097546 -0.03415166 0.10736995 -0.0655126 0.09246673 -0.022079173
0.03217598 0.06540557 -0.0020517448 -0.026840039 0.09097262 -0.083823815 -0.02419683 0.03055088
0.15060107 0.034127314 0.11574563 0.040244244 0.13639879 0.05279172 -0.07005254 -0.003736979
0.12223233 0.042883944 0.108083084 -0.024263758 -0.07212854 -0.0014456976 0.057615805 0.05767293
0.06558753 0.046210114 0.13020861 -0.018514596 -0.00021197743 0.015715862 -0.055872284 -0.0007751554
0.03676846 -0.023335485 0.027932253 -0.02330558 -0.00046599162 -0.021078996 -0.0070264665 -0.10715632
0.03015969 -0.0037906126 -0.08676512 0.11413089 0.06738564 0.0050881486 0.08566386 -0.06461729
-0.022862867 -0.021500753 -0.061081383 -0.011323357 0.056503393 0.028519554 -0.107186414 -0.024641639
0.22345623 0.15168202 0.092108466 0.145976 0.058139987 -0.025802 0.0509576 0.035978455
0.044260744 0.037721697 0.050175034 -0.03488717 0.09793319 0.1273145 0.011790171 -0.00999782
0.017028773 -0.10439729 -0.09261425 0.07587843 0.13209471 -0.052828364 -0.032183085 -0.0032799512
-0.051638257 0.13523373 -0.113188244 -0.03560095 0.09364968 0.0136253275 -0.05820117 0.08078308
-0.100746624 -0.033735402 -0.0016053582 0.11531002 -0.051938485 0.039514057 0.016425159 0.03765591
-0.175995 0.07829296 0.11134287 -0.08281184 0.09589648 -0.04713986 -0.089153536 -0.071998134
0.0069565442 -0.11580084 -0.026180908 0.02198045 -0.064347714 0.08202046 0.111563586 0.08138729
-0.0035639065 -0.11513012 0.05018835 -0.15995298 -0.0036937895 -0.006109389 -0.011068998 -0.11966648
0.09458836 -0.03086679 0.06152405 -0.02529985 -0.0017892221 -0.02896595 -0.08559874 0.01678851
-0.121703714 0.065059155 -0.05650046 0.12855785 0.021342978 0.02135181 0.070552066 -0.03307896
-0.09522278 0.049611177 0.011268185 0.0033330852 -0.0026674538 0.044095833 -0.075617865 0.046930984
-0.08334959 -0.13912489 -0.06568003 0.009457551 0.06329765 -0.00097210234 0.031486675 -0.0033677302
0.20702244 -0.04158599 -0.106461994 -0.055284448 -0.05187286 0.065890126 0.07771545 0.0695888
-0.07532416 0.031445257 -0.067425996 -0.018978266 0.055629127 -0.046824902 0.0817331 0.08106231
0.00032969564 0.058521077 -0.031181255 0.094171755 -0.07535776 0.05681187 0.011057067 -0.002619025

fc2.bias f4 [84]
00000000: 7d91 0ebe 0807 5cbd 7335 3bbd 5e29 1d3d
00000010: cdff 9d3d 95f1 f03d 3734 7d3b bf79 0abd
00000020: b138 023e 8853 97bb a41c 85bd 4021 abbd
00000030: 8e68 f5bb 63da 8c3c 6b5a 8abd 5cb8 8dbd
00000040: d0e3 adbd 1e26 72bd 0542 1e3e 4471 17bd
00000050: 74d7 74bd 5b0e 333d 7962 cb3d 31cf 5f3e
00000060: 307f fa3d 2279 e53d 90ec 043e 2227 78bd
00000070: a671 dbbd 2133 e0bc 3a7c b1bd e861 a63d
00000080: bb49 8bbd df87 b33d 71ba b5bd 02e0 5f3e
00000090: 2050 1f3e aacd 3cbd ea4c bcbd d1e4 2f3d
000000a0: 42fc 073e 0c02 1e3d 0f7b 3dbd 515a 883d
000000b0: bad3 e4bc 0cc0 bb3b 6a53 2d3e aee3 9abd
000000c0: 635d ef3b 0430 1f3e 93be 8f3d 2795 dfbd
000000d0: 5187 57bd e127 063d 6e73 7d3d 6500 603d
000000e0: 4303 733b 6388 19bd 8b41 053e 246e b3bd
000000f0: cbf0 5ebc 326c bdbd c3d1 9f3d 3c1f 703d
00000100: f6bb afbd 5139 2dbd 7f22 84bd 56fe d43d
00000110: d295 93bd af7d f0bd ab76 69bc 5f8d cf3d
00000120: dc94 95bc e433 013e 5907 3a3e 868b d8bc
00000130: d843 87bd b737 f3bd c118 66bd 9955 5ebd
00000140: bdea 1abe dedb dd3d bdae c5bd a8bb 473d
-0.13922687 -0.053717643 -0.04570527 0.03836953 0.07714806 0.11764828 0.0038635859 -0.033807512
0.12716939 -0.004618112 -0.064996034 -0.08355951 -0.0074892705 0.017193979 -0.06755527 -0.069199294
-0.084907174 -0.059118383 0.15454872 -0.036973253 -0.059775785 0.043714862 0.099308915 0.21856381
0.1223129 0.11204745 0.12980866 -0.060584195 -0.10715036 -0.02736813 -0.086662725 0.08124143
-0.06801172 0.0876615 -0.088734515 0.21862796 0.15557909 -0.046094574 -0.09194358 0.042942826
0.13279822 0.03857617 -0.046259936 0.066578515 -0.02793299 0.005729681 0.16926351 -0.07562958
0.0073048337 0.1554566 0.07018771 -0.109171204 -0.052619282 0.032752875 0.06187766 0.054687876
0.0037080802 -0.037483584 0.13013284 -0.08761242 -0.013607214 -0.09249152 0.07803681 0.058623537
-0.085807726 -0.04229099 -0.06451892 0.10400073 -0.0720631 -0.11742722 -0.014249484 0.10134386
-0.018259458 0.12617451 0.18166865 -0.026433717 -0.06604737 -0.11875861 -0.05617595 -0.05428085
-0.15128608 0.10832952 -0.09652469 0.048762947

fc3.weight f4 [10, 84]
00000000: 951a 113e d08c c63c c840 a8bd ccd3 823e
00000010: 1902 153e 8d18 483e 2f40 3a3d 6ac5 ef3d
00000020: 8dff 58bd 7135 babc 11a5 3fbd eb1f cfbc
00000030: 0d07 3f3e 3835 fe3d ff1e a5bc 2b01 e8bd
00000040: 6a21 683e e742 4f3e fb5c 833e 9efd 29be
00000050: 2652 663d 8b26 913c 3c4c 1d3e ef44 0e3e
00000060: 8c3f cebc b5b8 52be aedf 633d 9476 7a3d
00000070: 0a5e c23d 0e32 193e cdbe 1e3e 30a6 213e
00000080: 7369 353e 522d 13bd 0a18 ba3c fbbe 643e
00000090: 14ec 6bbe b311 47be 62bd 7f3c 50fa 45bd
000000a0: 383e 81be eecc 02be 70a5 60bd b1a4 c6be
000000b0: 6ddb 863e 8404 063b 3794 41bd e989 c23d
000000c0: 5d7d dbbc f218 b73d e0b0 8b3e 0212 4fbd
000000d0: 848f c03d 9186 a6bd 94ae 443e 3408 59be
000000e0: dac1 cd3d 9d85 523d ef97 a7bd 668d 63bd
000000f0: d09e aa3c 254c d6bd 70ce 273e 25cc eaba
00000100: 5e45 a53e 19cc 703b 90c4 dabc 8d3f a23d
00000110: c48f f7bd 8838 283d fc19 c6bd 1f52 85be
00000120: d439 703d 4e18 77be f417 68be f942 9cbd
00000130: 609f 033d 9e1a f8bc 168a 403d a1b0 003e
00000140: f063 493e 73de 45bd 41e9 fd3c 2fca c4be
00000150: b766 a63c 9a85 9d3e 778a acbd 8b04 033e
00000160: 98c4 a83d feb6 04be 3b7c 0e3d 3aa1 66bb
00000170: 765a ebbd 88c0 d03d 125d 4cbc 42be 99bc
00000180: 3c15 af3e aec7 4b3e d9da f43d c452 2cbc
00000190: c564 00be c6e1 4abd 0a85 1cbd 6a78 af3e
000001a0: 1f71 6d3d 6ee5 3c3c 3457 8fbe 90c8 94be
000001b0: b8c7 88bd 560d b23c 4ecd b3bd b482 743d
000001c0: 6dd8 0b3e 93e1 053c a40b 00be f4aa 843e
000001d0: 5d3d 07be 70de b4be 51f1 a1bd c1ac 36be
000001e0: 6a7c 3dbe 29d5 3cbe 7da6 81bb c9cb 50bd
000001f0: ad18 c8bc 9a12 163d c6d5 893d c6e5 2ebe
00000200: 455c 69be f018 923d c9fb 82be 0847 533d
00000210: 23fa 013e 62a1 403e b32d 43be 2e1e ed3e
00000220: 90d7 91bd 3015 b83d 66ba 1fbe 3ed1 b93c
00000230: ab3a cfbd 600a 03be 0633 a2bd 4f67 a83d
00000240: a959 3fbc 257c 813e c7cc 0e3d 965c e33d
00000250: ffec 13be 5d6f c8bc d773 c63d f01e b13d
00000260: 0896 e23c d6ec 7d3e 280f d23d bd7b aa3d
00000270: d025 4dbe 3282 94be 0f5b 23ba 3d0c 503e
00000280: 23fd 753d bd61 b53d d788 9e3c b625 10be
00000290: 1f42 af3c d86f a8bd 40ef c63d 5e24 ab3c
000002a0: f77e 7abd 0410 08be f9c6 79bd b178 903d
000002b0: 4993 1fbe 308b 983e dd9e 12be 7b31 c2bd
000002c0: 7f31 8cbd fcff b4bd f4cc f83d a20c 36bd
000002d0: b98c ebbd 1cfc c4bd 8305 4ebd 883e e33c
000002e0: 3515 b83e 357a 8f3e 84a6 6dbd 4d1a 943e
000002f0: 32a3 bfb8 c4c5 25be c2a5 a03e e04d 283e
00000300: 09ba 3bbe d598 d23d 3225 96ba ac59 bfbd
00000310: 77da f53d dba9 f3bd 235a 21bd 14fb 06be
00000320: b312 19be 5833 083d c9cd c2bc 496c 03be
00000330: 14e6 9c3e 5032 053e 97d5 eb3c 228e dcbd
00000340: 5507 583e 88b9 32bd 3a47 8b3c 14d3 aabd
00000350: 1d2c cebd dfbc c4bd 87e6 253e 19d9 703c
00000360: 2752 f5bd 30a3 3ebe 0032 123e f3dc aa3c
00000370: bffd abba 1ea3 ad3d 2bed 88be aa60 85be
00000380: 6829 a7bd f131 a4bd 2ca5 b4bd 6582 f63d
00000390: 9bb3 c43d e9fb 5bbe 1b09 76bd 81c5 4a3d
000003a0: 3a5f c33e 978d 95bd 84b1 c7bd f2ed 15be
000003b0: 6c3e 583e b664 6e3e 3d2f 7e3e 0ae8 5abd
000003c0: 3829 67bd e18f 81bd 6dc9 023e 8dc4 73be
000003d0: 6241 223b 77f1 a53d cee9 193e 5a23 0f3e
000003e0: 15f7 623b e95c 563e 6944 f33d 5cba ccbc
000003f0: 5899 9cbc 0389 89bd a1d5 5b3d 2e19 943c
0.14170296 0.024237067 -0.08215481 0.25552213 0.14551581 0.19540615 0.045471366 0.117075756
-0.052978087 -0.022730561 -0.04678828 -0.025283774 0.18655033 0.124124944 -0.020156382 -0.11328348
0.22668996 0.20240365 0.25656876 -0.16600654 0.056230687 0.017718574 0.15361112 0.13893484
-0.025176786 -0.20578273 0.05563324 0.06114824 0.09490593 0.149605 0.15502472 0.15786052
0.17716007 -0.035931893 0.02271654 0.22338478 -0.23039275 -0.19440345 0.015609117 -0.04833442
-0.25242782 -0.12773487 -0.054845273 -0.38797525 0.26339284 0.002044947 -0.04726049 0.094989605
-0.026793176 0.08940305 0.27283382 -0.050554283 0.094023734 -0.08131135 0.19207221 -0.21194535
0.1004674 0.051396955 -0.08183276 -0.05555477 0.02082768 -0.10463742 0.16387343 -0.0017913623
0.32279485 0.0036742745 -0.026705056 0.079222776 -0.12087968 0.041069537 -0.09672925 -0.26039216
0.0586489 -0.24130365 -0.22665387 -0.076299615 0.032134414 -0.03028613 0.04700669 0.12567379
0.1966703 -0.048307847 0.030995013 -0.38435504 0.02031265 0.30765992 -0.084248476 0.12794702
0.08240622 -0.12960431 0.034786444 -0.0035191313 -0.114918634 0.101929724 -0.012473362 -0.01876748
0.34195888 0.1990039 0.119558044 -0.01051778 -0.1253844 -0.04953172 -0.038212813 0.34271556
0.05796921 0.01152931 -0.27996218 -0.29059267 -0.06678718 0.021734875 -0.08779393 0.05969496
0.13656779 0.008171457 -0.1250444 0.25911677 -0.13207002 -0.35325956 -0.079073556 -0.17839338
-0.18504491 -0.18440689 -0.0039566145 -0.050975595 -0.024425829 0.036638834 0.06730227 -0.17079839
-0.22789104 0.07133663 -0.25582722 0.051581413 0.12693076 0.18811563 -0.19060402 0.46312088
-0.071211934 0.08988416 -0.15598449 0.022682782 -0.10118612 -0.12796926 -0.07919888 0.082228296
-0.0116790915 0.25290027 0.03486326 0.11101644 -0.14445876 -0.024467165 0.096900634 0.08648479
0.027659431 0.24797377 0.10256797 0.083243825 -0.20033956 -0.2900558 -0.00062315253 0.20317169
0.060055863 0.08856533 0.01935236 -0.14076886 0.021393834 -0.082244575 0.09713602 0.020891365
-0.06115624 -0.1328736 -0.06098077 0.0705427 -0.15583529 0.29793692 -0.14318414 -0.09482094
-0.06845378 -0.08837888 0.12148467 -0.04444564 -0.1150145 -0.096183985 -0.050298225 0.027739778
0.3595368 0.28022924 -0.05802013 0.28926316 -9.137987e-05 -0.16188723 0.31376463 0.16435957
-0.18332686 0.10283057 -0.0011455177 -0.093432754 0.120045595 -0.11897632 -0.0393926 -0.13181716
-0.1494854 0.03325209 -0.023779767 -0.12834276 0.30644286 0.13007474 0.028788371 -0.10769297
0.21096547 -0.043633968 0.017001737 -0.08341041 -0.10067008 -0.09606337 0.1620122 0.014700198
-0.1197856 -0.18616939 0.14276886 0.02085731 -0.0013121887 0.08478378 -0.26743445 -0.2605031
-0.081621945 -0.08017338 -0.088205665 0.120365895 0.096045695 -0.21482815 -0.060067277 0.04950476
0.3815859 -0.07302397 -0.09750655 -0.1464155 0.21117562 0.23280606 0.24822707 -0.053443946
-0.056435794 -0.06326271 0.1277215 -0.23805447 0.002475821 0.081026964 0.15030596 0.1397833
0.0034632136 0.2093388 0.118782826 -0.024991207 -0.019116089 -0.06715586 0.05367053 0.018078413

fc3.bias f4 [10]
00000000: b6d3 c6bd 9b4e 9fbe d862 023e 0b02 813e
00000010: 72d8 c93e 434d aa3c 8e4b 21bd 0019 81be
00000020: ad3b cc3e f033 0abe
-0.097083494 -0.3111466 0.12733018 0.2519687 0.39422947 0.020788794 -0.039378695 -0.25214386
0.3988928 -0.13496375
