trained_net.pth (torch, 369029 bytes, 10 tensors)

conv1.weight f4 [12, 3, 5, 5]
0	0xbe5d88e5	-0.21634252
1	0xbefe3fb4	-0.49657977
2	0xbf06f7e0	-0.5272198
3	0xbeea5a51	-0.4577203
4	0xbeb2e520	-0.34940434
5	0xbe47e276	-0.19519982
6	0xbe0740dd	-0.13208337
7	0xbe98ba6b	-0.29829726
8	0xbeb58b3a	-0.35457784
9	0xbeab6198	-0.33472896
10	0x3e631958	0.22177637
11	0x3e9907c6	0.29888743
12	0x3ecabd88	0.39597726
13	0x3eb2c933	0.34919128
14	0x3e5f3a78	0.21799648
15	0x3e3367bc	0.1752004
16	0x3c363cf3	0.01112293
17	0xbca5f678	-0.020259127
18	0xbd201b8e	-0.03908878
19	0x3e20c18c	0.15698832
20	0x3e843b6c	0.25826585
21	0x3e486740	0.19570637
22	0x3e2f1df4	0.1710127
23	0x3e800a6b	0.25007948
24	0x3e9e166c	0.30876482
25	0xbe4d6de7	-0.20061456
26	0xbe71737b	-0.23579209
27	0xbe00663d	-0.12539001
28	0xbe43fb42	-0.19138816
29	0xbd89725c	-0.067112654
30	0x3cacb472	0.021082137
31	0xbdb0262d	-0.086010315
32	0x3d81f432	0.06345405
33	0xbd4703ee	-0.048587732
34	0x3d13e542	0.03610731
35	0x3e688233	0.22705917
36	0x3ea093c8	0.31362748
37	0x3f0d6fc1	0.5524865
38	0x3ea7246b	0.32644972
39	0x3e64613d	0.22302718
40	0xbe167506	-0.14693078
41	0xbe15eead	-0.14641829
42	0xbbf456b6	-0.007456626
43	0xbd50fc53	-0.051021885
44	0xbe1aff49	-0.15136446
45	0x3bb0142a	0.0053734975
46	0x3da00cca	0.07814939
47	0xbd9db586	-0.077006385
48	0x3d38b403	0.045093548
49	0x3e15908a	0.14605919
50	0x3c9aec73	0.018911576
51	0xbc42e06c	-0.011894327
52	0xbe341b82	-0.17588618
53	0xbd3edc03	-0.04659654
54	0x3ca3f6a6	0.020015072
55	0xbd214b92	-0.03937871
56	0xbcaa25aa	-0.020769913
57	0xbd93ac51	-0.07210601
58	0xbd75fa5e	-0.060053222
59	0x3d22ec21	0.03977597
60	0x3e1c27cd	0.15249558
61	0x3e9de5af	0.30839297
62	0x3ee184db	0.44046673
63	0x3e9d8734	0.30767214
64	0x3e3ef250	0.18647122
65	0xbde4be23	-0.11169078
66	0xbddd943b	-0.10819288
67	0xbdd8d819	-0.10588092
68	0xbdf55640	-0.119793415
69	0xbd7b4107	-0.06134131
70	0xbd87ff9c	-0.066405505
71	0xbdbf3c5d	-0.09337685
72	0xbe36fcf7	-0.17869936
73	0xbe9a0c4a	-0.300875
74	0xbda00f36	-0.07815401
75	0xbda9c967	-0.082903676
76	0xbe9da887	-0.3079264
77	0xbd59087a	-0.0529866
78	0xbea882de	-0.32912344
79	0x3ac63806	0.0015122897
80	0x3e4789f0	0.19486213
81	0x3ee8e715	0.45488802
82	0x3f199945	0.59999496
83	0x3e472786	0.1944867
84	0x3eafb423	0.3431712
85	0xbe163c23	-0.14671378
86	0x3e729325	0.23688944
87	0x3ef6635c	0.4812268
88	0x3e66f570	0.22554564
89	0x3e177c75	0.1479357
90	0xbdf50a4a	-0.11964853
91	0xbed38e15	-0.41319337
92	0xbec83183	-0.39100274
93	0xbeeb622e	-0.45973343
94	0xbe3525f0	-0.17690253
95	0x3d0e2d06	0.034710906
96	0xbe632064	-0.22180325
97	0xbe8a91ff	-0.2706451
98	0xbdd40e6c	-0.10354313
99	0x3cae7550	0.021296173
100	0x3e21b754	0.1579259
101	0xbdfa99c9	-0.122363634
102	0xbd644ec4	-0.05573918
103	0xbecc387d	-0.39886847
104	0xbe12922f	-0.14313577
105	0x3e4dc9ed	0.2009656
106	0x3e34a55e	0.17641208
107	0x3f11ec33	0.57001036
108	0x3e804f26	0.25060385
109	0x3db3233c	0.08746955
110	0xbeb31661	-0.3497801
111	0xbc41c822	-0.011827501
112	0x3f221974	0.6332009
113	0x3ebae5fc	0.3650359
114	0x3e2e579e	0.17025611
115	0xbdd1aa55	-0.102375664
116	0xbf17b1bd	-0.5925558
117	0xbef0b05b	-0.4700955
118	0xbe987350	-0.29775476
119	0xbe575e1d	-0.21031995
120	0x3e739411	0.23786952
121	0xbe4a6290	-0.19764161
122	0xbe430a07	-0.19046794
123	0xbe5503a2	-0.20802167
124	0x3d1d14b1	0.03834981
125	0x3def9061	0.1169746
126	0xbeae0aa8	-0.33992505
127	0xbeda5132	-0.42640072
128	0xbf09f7db	-0.5389382
129	0xbe160e7e	-0.14653966
130	0x3e42bbbe	0.1901693
131	0xbcc6b6e3	-0.024257129
132	0x3eb26f2b	0.3485044
133	0x3c6223fc	0.013802525
134	0x3e4e66fa	0.2015647
135	0xbe36c235	-0.17847522
136	0x3d3242f7	0.043520894
137	0x3f11b8b1	0.5692244
138	0x3ebfc359	0.37453726
139	0x3e1d2e2d	0.15349646
140	0x3cb1cbfa	0.021703709
141	0xbe8bb43e	-0.2728595
142	0xbe435574	-0.19075567
143	0xbe462f81	-0.19354059
144	0xbde30f83	-0.11086943
145	0x3ecb1975	0.3966786
146	0xbbb45c01	-0.005504132
147	0x3d98c015	0.07458512
148	0xbbda038b	-0.0066532544
149	0x3e7bf251	0.24604155
150	0xbda910b2	-0.082551375
151	0x3dd7710b	0.10519608
152	0xbbb6522a	-0.005563994
153	0xbd279ffe	-0.040924065
154	0x3ddaf3ad	0.10691009
155	0xbd851d0f	-0.06499683
156	0x3e491e33	0.19640426
157	0xbef7f555	-0.4842936
158	0xbd597509	-0.05309013
159	0x3e9cca6e	0.30623192
160	0x3d3129d0	0.043252766
161	0x3f0db248	0.5535016
162	0xbf196a38	-0.599277
163	0xbee0ef5a	-0.4393261
164	0x3efb18fc	0.490425
165	0xbdc3ca1f	-0.09560036
166	0x3f2189b9	0.63100773
167	0xbef27551	-0.4735513
168	0xbf1765af	-0.5913953
169	0x3ed76a9a	0.42073518
170	0xbce0355e	-0.027369197
171	0x3f00811d	0.5019701
172	0xbda662dc	-0.08124325
173	0xbe8af358	-0.27138782
174	0x3d06eb5f	0.03293931
175	0x3a7ba58a	0.00095995574
176	0x3dfa84cc	0.1223236
177	0xbe8150d5	-0.25256982
178	0xbdc611ec	-0.09671387
179	0x3e6d9a0d	0.23203297
180	0x3dd81a61	0.105519064
181	0x3e7dc723	0.24782996
182	0xbf152913	-0.582658
183	0xbe92a543	-0.2864171
184	0x3ebe3cda	0.371558
185	0x3dc9412d	0.098268844
186	0x3f049455	0.51788837
187	0xbf5c1c34	-0.85980535
188	0xbf022298	-0.50834036
189	0x3f2194ed	0.6311787
190	0x3d733f0d	0.0593863
191	0x3f45868c	0.7715843
192	0xbf1652ec	-0.5872028
193	0xbf4121cb	-0.7544219
194	0x3e5e2bba	0.21696368
195	0x3bf127b0	0.0073594674
196	0x3f02bf59	0.51073223
197	0xbdf402ed	-0.119146205
198	0xbec25a2e	-0.37959427
199	0x3e49b505	0.1969796
200	0x3d28e495	0.041233618
201	0x3ccad578	0.024759993
202	0xbe279aef	-0.16367696
203	0xbc52e1b3	-0.012871194
204	0xbdbd8ce1	-0.09255386
205	0x3d5d4421	0.05402005
206	0x3e76a4ac	0.24086255
207	0xbf0386a8	-0.51377344
208	0xbd71b457	-0.059009876
209	0x3e6feb7e	0.23429677
210	0x3de2c7b2	0.11073245
211	0x3f170538	0.5899234
212	0xbf30d9ef	-0.6908254
213	0xbede35d6	-0.4340045
214	0x3edaf189	0.42762402
215	0x3d81b1af	0.063327186
216	0x3f1edd59	0.620565
217	0xbe9b2c27	-0.30307123
218	0xbf063ae1	-0.5243359
219	0x3eb1640d	0.34646645
220	0x3bb1cc11	0.005425938
221	0x3ed1d485	0.40982452
222	0xbd555aee	-0.05208867
223	0xbe1d960e	-0.15389273
224	0x3d868693	0.06568637
225	0xbe0be8cd	-0.13663025
226	0x3d351c96	0.044216715
227	0x3df501a7	0.11963206
228	0x3bed9ebf	0.00725159
229	0xbd6491f8	-0.05580327
230	0xbe079f8d	-0.13244458
231	0x3d9a5be5	0.07537059
232	0xbddd2ff5	-0.10800163
233	0xbd1707ae	-0.03687256
234	0xbe54360d	-0.20723744
235	0xbe025636	-0.127282
236	0xbdd24c54	-0.10268465
237	0xbdae3ab2	-0.08507289
238	0xbe959309	-0.2921374
239	0xbe23a921	-0.15982486
240	0xbe53f420	-0.20698595
241	0x3ddb4a83	0.10707571
242	0x3b824824	0.003975885
243	0xbe59e924	-0.21280342
244	0xbe2fca55	-0.17167027
245	0x3d757d97	0.059934225
246	0x3e10d8a3	0.1414514
247	0x3ba62acb	0.0050710193
248	0xbe4708bf	-0.1943693
249	0xbe019220	-0.12653399
250	0xbdc27023	-0.09494045
251	0x3dcc59f5	0.099780954
252	0x3e1d087f	0.15335272
253	0x3d2344fa	0.039860703
254	0x3cbde772	0.02318165
255	0x3cfa4c3c	0.03055393

conv1.bias f4 [12]
0	0x3be8ff9e	0.00711055
1	0xbe84db53	-0.2594858
2	0xbe053bbb	-0.13011067
3	0xbecbf4da	-0.39835244
4	0x3c4a7a33	0.012358236
5	0xbea7bd57	-0.32761642
6	0x3f2eb814	0.6824963
7	0x3e1dbdbf	0.15404414
8	0xbd628191	-0.055299345
9	0x3e885e79	0.26634577
10	0xbec2db98	-0.38058162
11	0xbe1ec521	-0.15504886

conv2.weight f4 [24, 12, 5, 5]
0	0xbde21a3c	-0.1104016
1	0xbb712d9d	-0.003680087
2	0x3d5c3b16	0.053767286
3	0x3dfb6cfb	0.12276646
4	0x3db5e5cb	0.0888172
5	0xbd522b59	-0.05131087
6	0xbe072d8e	-0.13200971
7	0xbd8a925c	-0.06766197
8	0x3d9cf805	0.076644935
9	0x3d93ceac	0.07217154
10	0xbd7bce8b	-0.06147627
11	0xbe22ed40	-0.15910816
12	0xbe04ad91	-0.12956835
13	0xbdad101e	-0.0845034
14	0xbdb5e846	-0.08882193
15	0xbd2fbe91	-0.042906348
16	0xbe0b4e83	-0.13604169
17	0xbe33a37d	-0.17542835
18	0xbe284a80	-0.1643467
19	0xbdefa376	-0.117010996
20	0xbcc1af3e	-0.023643132
21	0xbdbc16b1	-0.091840155
22	0xbd4055be	-0.04695677
23	0x3d0b993c	0.034081683
24	0xbc769d17	-0.015052102
25	0xbe127de0	-0.1430583
26	0xbd1c0e66	-0.03809967
27	0x3c0ce518	0.008599542
28	0xbd908140	-0.070559025
29	0xbe0561a4	-0.13025528
30	0xbe2519b8	-0.16123092
31	0xbe12c72d	-0.14333792
32	0xbe14d253	-0.14533357
33	0x3d08bf86	0.033385776
34	0xbd534c2b	-0.05158631
35	0xbdbbbc40	-0.09166765
36	0xbd096ba3	-0.033549916
37	0xbdb6aadd	-0.08919308
38	0xbd8f8b36	-0.07008974
39	0x3957ece5	0.00020592248
40	0xbe39fa0c	-0.18161792
41	0xbdebf4ba	-0.11521287
42	0xbe72ee6b	-0.23723762
43	0xbe3e232d	-0.18568106
44	0xbccf36c6	-0.025294673
45	0xbe134f82	-0.14385799
46	0xbd4f4e44	-0.05061175
47	0xbcfa2f6b	-0.030540189
48	0xbdecbfbc	-0.11560008
49	0xbd1850de	-0.037186496
50	0xbe3980d3	-0.18115549
51	0xbdcd7eb3	-0.100339316
52	0xbd5bb760	-0.053641677
53	0x3e1460f0	0.14490104
54	0x3ddd94f3	0.108194254
55	0xbcdb3030	-0.026756376
56	0xbd89b54b	-0.06724032
57	0xbdaf76d7	-0.08567589
58	0x3d4c0844	0.04981257
59	0x3d6ecfcb	0.058303636
60	0x3d91115d	0.0708339
61	0x3dea0a38	0.1142773
62	0x3ca5e271	0.020249577
63	0x3cb81a7b	0.022473564
64	0xbd983c50	-0.07433379
65	0x3d30204e	0.04299956
66	0x3d8fb811	0.0701753
67	0x3e0bbcc5	0.13646229
68	0x3cc20a5a	0.023686577
69	0xbce901ec	-0.0284433
70	0xbd1edbbc	-0.038783774
71	0x3d8e8aac	0.06960043
72	0x3d8af278	0.067845285
73	0xbc7048be	-0.014665781
74	0xbc51ca8d	-0.0128046395
75	0x3e1354f9	0.14387883
76	0x3d0a8282	0.03381587
77	0x3d5d4a48	0.05402592
78	0x39958bce	0.00028523657
79	0x3c493e0d	0.01228286
80	0x3d9e3043	0.07724049
81	0xbe27e482	-0.16395763
82	0xbd856d51	-0.06514991
83	0xbcc0c8cc	-0.023533247
84	0x3d6b24bf	0.05740809
85	0x3e295fba	0.16540423
86	0xbdd4bfc9	-0.103881426
87	0xbda1dc4e	-0.07903348
88	0xbdeec8d6	-0.116594
89	0x3d5a3491	0.053272787
90	0x3d30e7e4	0.043189898
91	0x3cb3cb53	0.021947538
92	0xbac3988e	-0.0014922784
93	0xbb221535	-0.0024731879
94	0x3bb56fd2	0.0055370117
95	0x3d8de4f9	0.06928439
96	0x3e0a50c7	0.13507377
97	0x3ba2bb49	0.004966174
98	0x3a72bedd	0.0009260008
99	0x3df4f1aa	0.11960156
100	0xbdf4de32	-0.11956443
101	0xbb936c6e	-0.00449901
102	0x3c789300	0.015171766
103	0x3da18b08	0.07887846
104	0x3d72d3de	0.059284084
105	0xbd3d427e	-0.04620599
106	0xbd68c825	-0.056831498
107	0x3d5f6dbe	0.054548018
108	0x3e1ade30	0.1512382
109	0x3d1c67ad	0.03818481
110	0x3d04f5ac	0.032460853
111	0xbd1559c0	-0.036462545
112	0xbd38c3b0	-0.045108497
113	0x3e0d8fc0	0.13824368
114	0x3cbd987f	0.023144005
115	0x3dbd4c1e	0.09243034
116	0x3c29ae32	0.010356473
117	0xbca81f19	-0.020522641
118	0x3d610a2b	0.054941338
119	0xbdeae30c	-0.11469087
120	0x3d3046c6	0.043036245
121	0xbd33880d	-0.04383092
122	0x3c7a2cdc	0.015269484
123	0x3bf6f035	0.007535959
124	0xbd6de663	-0.058081042
125	0x3c1d758a	0.009610543
126	0xbd81daf2	-0.06340589
127	0xbdfac9e3	-0.12245538
128	0xbd79383f	-0.060844656
129	0xbd8c79b6	-0.06859152
130	0x3da39de0	0.07989097
131	0x3d051119	0.03248701
132	0xbd92a1e6	-0.07159786
133	0xbde1c59b	-0.110240184
134	0xbce4a635	-0.027911285
135	0x3d7c44fd	0.06158923
136	0xbc75502b	-0.014972727
137	0xbd559b8f	-0.052150305
138	0xbd1cc104	-0.03827001
139	0xbd45e067	-0.04830971
140	0xbc8fab15	-0.017537633
141	0x3d815ae0	0.06316161
142	0x3c1730b6	0.009227922
143	0x3ca5e8e7	0.020252658
144	0xbc68cb15	-0.014208575
145	0xbd9b65b4	-0.07587758
146	0xbd164340	-0.03668523
147	0x3d688ad9	0.05677304
148	0x3d88e35b	0.066839896
149	0x3dc74412	0.0972978
150	0x3e03c0cf	0.1286652
151	0xbc83f4ba	-0.016107906
152	0x3dfbc903	0.12294199
153	0x3e40caf1	0.18827416
154	0x3e253827	0.16134702
155	0x3dea6d48	0.11446625
156	0xbc95fb41	-0.018308284
157	0x37f80974	2.9568306e-05
158	0x3d4cb570	0.04997772
159	0x3bf3acad	0.007436356
160	0x3dddcd2a	0.108301476
161	0xbdc64ccf	-0.09682619
162	0xbd032e4c	-0.032026574
163	0x3d0d441d	0.034488786
164	0x3c60c51a	0.013718868
165	0x3da99e77	0.08282178
166	0xbd116c1e	-0.0355035
167	0xbe13d2d6	-0.14435896
168	0xbc01afb6	-0.007915428
169	0x3d424ff9	0.04743955
170	0x3e44a938	0.19205177
171	0x3dc34954	0.095354706
172	0xbccf17c5	-0.025279889
173	0x397f72f4	0.00024361518
174	0x397fa010	0.00024378323
175	0x3e180524	0.14845711
176	0x3c9e09b0	0.019291729
177	0x3e598188	0.21240819
178	0x3e7b375f	0.24532841
179	0x3dca41c2	0.098758236
180	0xbb9650dc	-0.004587276
181	0xbda012a0	-0.078160524
182	0xbd8129e1	-0.06306816
183	0x3e081dfb	0.13292687
184	0x3e0863d4	0.13319331
185	0xbcccc83f	-0.024997829
186	0xbd31290e	-0.043252043
187	0xbdbcd9d8	-0.09221238
188	0xbd3e2511	-0.046422068
189	0x3e151e56	0.14562353
190	0x3d10881e	0.03528606
191	0x3cb3f716	0.021968406
192	0x3d477782	0.048697956
193	0xbd381623	-0.044942986
194	0xbde2da9a	-0.11076851
195	0x3d267b5e	0.040644996
196	0x3de97b06	0.11400418
197	0x3da73c10	0.08165753
198	0xbe0d1e26	-0.13781032
199	0xbe02184e	-0.12704584
200	0xbdce34d1	-0.10068668
201	0xbe402823	-0.18765311
202	0xbe505801	-0.20346071
203	0xbe588cd2	-0.21147469
204	0xbd8479cf	-0.06468546
205	0xbc3d0b4b	-0.011538337
206	0xbd6d00ec	-0.057862207
207	0xbdd8539f	-0.105628245
208	0xbe4f0a5f	-0.202188
209	0xbe526733	-0.2054718
210	0xbd9e4aa4	-0.0772908
211	0xbc385998	-0.01125183
212	0xbd257775	-0.040397126
213	0xbdbb75c6	-0.09153323
214	0xbe0745b1	-0.13210179
215	0xbdb2a894	-0.0872356
216	0x3d1fb6ad	0.038992573
217	0x3b086685	0.002081306
218	0x3c44d627	0.0120139485
219	0xbe1e371c	-0.1545071
220	0xbd878d93	-0.066188
221	0xbc8f3c03	-0.01748467
222	0xbde31d9a	-0.110896304
223	0xbd906e5e	-0.07052301
224	0xbdaebac8	-0.085317194
225	0x3c490fea	0.012271861
226	0x3cfe46cd	0.03103962
227	0xbcf3c715	-0.029758016
228	0x3d179dc9	0.03701571
229	0x3bd686e0	0.00654684
230	0x3cfee43d	0.031114692
231	0xbdfc4489	-0.123177595
232	0xbc64a9bb	-0.0139564825
233	0xbd65827c	-0.056032643
234	0x3b9607f6	0.0045785857
235	0x3d57bd8e	0.052671008
236	0xbd056fde	-0.032577388
237	0xbc892ea9	-0.016745882
238	0xbdcc0e04	-0.09963611
239	0xbd5fc6c8	-0.054632932
240	0x3d88ad5b	0.0667369
241	0x3d2f720c	0.042833373
242	0xbdcc7090	-0.09982407
243	0x3c843c2d	0.016141975
244	0x3c8cc464	0.01718349
245	0x3e1a1b88	0.15049565
246	0x3d3a399d	0.0454651
247	0x3d403663	0.046926867
248	0xbc0bf49f	-0.008542209
249	0xbc811e02	-0.01576138
250	0xbdea0757	-0.11427181
251	0xbe5e7d1f	-0.21727417
252	0xbdb869ce	-0.09004556
253	0xbd62c2a7	-0.055361416
254	0xbd585282	-0.05281306
255	0x3c5dadf4	0.013530243

conv2.bias f4 [24]
0	0x3e2f0e49	0.17095293
1	0x3da50e24	0.08059338
2	0x3e0c94c9	0.13728632
3	0xbe34debe	-0.17663094
4	0x3d8573a0	0.06516194
5	0x3db9e3c8	0.09076649
6	0xbe75524e	-0.23957178
7	0xbc560496	-0.013062617
8	0xbd8696ea	-0.06571753
9	0x3ece3614	0.40275633
10	0xbcded234	-0.027199842
11	0x3d9dabbf	0.076987736
12	0x3e1c5673	0.15267353
13	0x3f0cd51f	0.55012697
14	0x3ee5db58	0.44893909
15	0xbe9e016e	-0.30860466
16	0x3ea71a8a	0.32637435
17	0x3d7228dc	0.059120998
18	0xbf1c9e29	-0.61178833
19	0x3e4e5923	0.2015119
20	0xbe869312	-0.2628408
21	0xbd12d8c0	-0.03585124
22	0x3f21678e	0.63048637
23	0xbec12441	-0.37722972

fc1.weight f4 [120, 600]
0	0x3cf938e8	0.030422643
1	0xbbb64796	-0.005562733
2	0xbd317a4a	-0.043329515
3	0x3cb7c940	0.02243483
4	0xbd54f702	-0.051993378
5	0x3d15c181	0.036561493
6	0x3a17dc40	0.00057930127
7	0xbda2d0e6	-0.079500005
8	0x3c1649f0	0.0091729015
9	0x3c79c263	0.015244099
10	0xbd8b9858	-0.06816167
11	0xbb4d68bf	-0.003134295
12	0xba108da5	-0.0005514271
13	0x3c6775b8	0.014127187
14	0x3d8d2e85	0.068936385
15	0xbcbf0622	-0.023318354
16	0xbc65bb90	-0.014021769
17	0xbd914807	-0.07093816
18	0xbcceeb57	-0.025258703
19	0xbc07960c	-0.00827552
20	0xbc812bf8	-0.015768036
21	0x3d02b631	0.031912033
22	0xbd2e9473	-0.04262204
23	0xbd810541	-0.0629983
24	0xbcf9f3e1	-0.030511798
25	0xbbea1dc8	-0.0071446635
26	0xbd47b8b7	-0.048760142
27	0x3d7b7fdb	0.06140123
28	0xbb4d7006	-0.0031347289
29	0x3d1495c0	0.036275625
30	0x3d20c02e	0.039245777
31	0x3d8e6bf2	0.06954183
32	0x3d1e978d	0.03871875
33	0x3cda7de6	0.026671361
34	0x3cf25873	0.029583191
35	0x3cc8cb38	0.024510965
36	0x3cd13a9d	0.025540644
37	0xbb30da78	-0.0026985686
38	0xbcc6f8d1	-0.024288567
39	0xbc6e07ff	-0.014528274
40	0xbcc8e4ce	-0.024523165
41	0xbce018a3	-0.027355498
42	0xbd6aa48f	-0.05728584
43	0xbc9f506f	-0.019447533
44	0xbd2df294	-0.04246767
45	0xbd085351	-0.03328258
46	0xbb93a2d7	-0.004505496
47	0xbc0a0345	-0.008423631
48	0xbcb25ab6	-0.02177177
49	0xbd08840d	-0.03332906
50	0xbcfbf8a0	-0.030758202
51	0xbd40f14c	-0.04710512
52	0x3d632ae8	0.05546084
53	0x3d20d08d	0.03926139
54	0x3d1b1f72	0.037871785
55	0xbc3503c1	-0.011048258
56	0xbd3c58e8	-0.045983225
57	0x3ba9880e	0.0051736897
58	0x3d81f9b1	0.06346453
59	0xbb277452	-0.002555151
60	0xbc8cd219	-0.017190026
61	0xbcd0de69	-0.025496678
62	0x3b90017a	0.0043947073
63	0x3d0cd337	0.034381118
64	0x3cc5e832	0.02415857
65	0x3d11b030	0.035568416
66	0xbcefeaae	-0.029286709
67	0xbc026383	-0.007958296
68	0xbc43f308	-0.011959799
69	0x3c62a610	0.013833538
70	0xbc8d96ce	-0.017283823
71	0xbc334576	-0.010941854
72	0xba7b1be5	-0.0009579047
73	0xbd03cf71	-0.032180253
74	0xbd0da0d3	-0.034577202
75	0xbd3f66c6	-0.04672887
76	0x3cdab8d2	0.026699457
77	0xbd7818b4	-0.060570434
78	0x3c794950	0.015215233
79	0x3c6b18df	0.014349191
80	0x3cb3e413	0.02195934
81	0xbcb66772	-0.022266123
82	0xbd943064	-0.07235792
83	0xbc54b184	-0.012981776
84	0x3d5cd6dd	0.053915847
85	0xbba252a0	-0.0049536973
86	0x3c572c65	0.013133143
87	0xbc938acb	-0.018010518
88	0xbd460ca2	-0.04835189
89	0xbda275e1	-0.0793264
90	0x3caca413	0.02107433
91	0xbd2188a5	-0.039436955
92	0x3c8c846d	0.01715299
93	0xbd37734f	-0.0447877
94	0xbd6fef50	-0.058577836
95	0x3c845870	0.016155452
96	0xbd3c2833	-0.045936774
97	0x3d6cc24a	0.057802476
98	0xbc892c26	-0.016744684
99	0x3c75a0a3	0.014991912
100	0x3c102688	0.008798249
101	0xbc4aa86f	-0.012369259
102	0xbcb7d0a5	-0.022438357
103	0xbcbd63c2	-0.023118857
104	0xbb471187	-0.0030375437
105	0xbd439ec1	-0.04775882
106	0x3cfbc74b	0.030734679
107	0x3d5f5470	0.054523885
108	0xbc32f6be	-0.010923086
109	0xbc87a6e2	-0.016559068
110	0xbd822607	-0.063549094
111	0xbc79cf47	-0.015247173
112	0xbc83c289	-0.016083973
113	0xbd4a075f	-0.049323436
114	0xbb9c47ad	-0.0047692866
115	0xbd476890	-0.048683703
116	0xbd63e93a	-0.055642344
117	0xbc8879b6	-0.016659599
118	0xbc8f1db1	-0.017470213
119	0xbbd0dc09	-0.0063738865
120	0xbdc6da23	-0.09709575
121	0xbcc366ed	-0.02385279
122	0xbcd147de	-0.025546964
123	0x3d7c7a82	0.06164027
124	0xbbb982b2	-0.005661332
125	0xbc3b7edb	-0.011443819
126	0x3d214b58	0.039378494
127	0x3d3caad3	0.04606135
128	0x3d3f4afc	0.04670237
129	0x3c4992e1	0.012303085
130	0x3cbdd876	0.023174506
131	0xbd96bbd7	-0.07360046
132	0x3d542b63	0.05179919
133	0x3d9d5f64	0.0768421
134	0x3c6c9160	0.014438957
135	0xbd41699e	-0.047219865
136	0xbc5c288f	-0.013437404
137	0x3daad3cf	0.083411805
138	0x3cbe44ef	0.02322623
139	0x3d471671	0.048605386
140	0xbde07dc5	-0.10961489
141	0xbd0f7658	-0.03502497
142	0x3c0af1cd	0.008480501
143	0x3ce5a2f6	0.028031807
144	0xbd081a62	-0.033228286
145	0xbd843a57	-0.0645644
146	0x3caff8af	0.021480886
147	0x3d557de3	0.052122008
148	0x3c9d4e2e	0.019202318
149	0xbbabc20d	-0.0052416385
150	0x3d96cfcc	0.07363853
151	0x3db9c764	0.09071234
152	0x3c1b44cd	0.009476853
153	0x3c8da6fe	0.017291542
154	0xbcc53d93	-0.024077212
155	0xbb6530d2	-0.0034971726
156	0x3d0c2b86	0.034221195
157	0xbce16115	-0.027512113
158	0x3c4ccbbb	0.012499745
159	0x3cbf3c82	0.023344282
160	0x3ba82701	0.0051316028
161	0x3bfa41f8	0.0076372586
162	0x3abf46fd	0.00145933
163	0x3c9e9c23	0.019361561
164	0xbd051199	-0.032487486
165	0x3c1d1ab3	0.009588885
166	0x3d0b0c7f	0.033947464
167	0x3d16510d	0.03669839
168	0x3bb73d2f	0.0055920104
169	0x3ca757ab	0.020427546
170	0x3bbc7f69	0.005752493
171	0xbc612e08	-0.013743885
172	0xbcad755e	-0.02117413
173	0x3cc1e5dd	0.023669178
174	0xbd7eb7b8	-0.062186927
175	0x3d0d4e89	0.034498725
176	0x3d168d03	0.036755573
177	0xbbea2c7a	-0.0071464153
178	0x3c236ee2	0.009975167
179	0x3ce1d21b	0.027566006
180	0xbd01735c	-0.031604156
181	0xbc0edb99	-0.008719348
182	0x3c6d7fe4	0.0144958235
183	0x3d596e97	0.053083982
184	0x3ccee736	0.025256734
185	0x3b182138	0.002321316
186	0xbcd2cb4c	-0.025731705
187	0xbc3d868d	-0.011567724
188	0x3c1a4b57	0.0094173765
189	0x3d23abbe	0.039958708
190	0x3c93ede4	0.018057771
191	0xbced408c	-0.028961442
192	0xbd062b53	-0.03275616
193	0xbc17b67a	-0.009259814
194	0x3ba8aaf0	0.0051473305
195	0x3b4f6e31	0.0031651373
196	0x3d43d333	0.047808837
197	0x3b52a1da	0.0032139928
198	0xbd0f6429	-0.03500763
199	0x3c8d9667	0.017283631
200	0xbc9fbb5a	-0.019498516
201	0x3cc36c07	0.023855222
202	0x3cb24551	0.021761568
203	0x3c48594c	0.012228321
204	0xbc051b9a	-0.0081242565
205	0xbc99f638	-0.018794164
206	0xbd308a09	-0.04310039
207	0x3c3e0d4c	0.01159985
208	0xbc063b43	-0.00819284
209	0xbcd33b66	-0.02578516
210	0xbcfe801b	-0.031066945
211	0xbcea31e5	-0.028588245
212	0xbcae6d2b	-0.02129229
213	0xbbbb6c75	-0.005719716
214	0x3cf70517	0.030153794
215	0xbacbf09b	-0.0015559377
216	0xbd58ad81	-0.05289984
217	0xbc6363c2	-0.013878765
218	0x3d0c1752	0.034201927
219	0x3d15d4ba	0.036579825
220	0x3c0170cb	0.007900427
221	0xbd5fda4c	-0.054651543
222	0x3d0af4c9	0.03392485
223	0x3a747e32	0.0009326666
224	0x3bbd542a	0.0057778554
225	0x3d2c1773	0.04201455
226	0xbc87d357	-0.016580267
227	0xbd39f196	-0.04539641
228	0xbd88a332	-0.06671752
229	0x3c131ea7	0.008979476
230	0x3d43994d	0.04775362
231	0x3d288605	0.041143436
232	0xbd0dec30	-0.034649074
233	0xbdeaf8ba	-0.11473222
234	0xbce66d07	-0.02812816
235	0x3d4c50c3	0.049881708
236	0x3d4b676f	0.04965919
237	0x3c4cf1d3	0.012508827
238	0xbdd37f39	-0.10327
239	0x3add0efe	0.001686543
240	0xbca67e28	-0.020323828
241	0x3cfabc76	0.030607443
242	0x3c234c6e	0.009966953
243	0xbce1aef7	-0.02754925
244	0xbd388f41	-0.045058493
245	0xba99a4bd	-0.001172207
246	0xbda2ecc5	-0.079553165
247	0xbcf6847d	-0.030092472
248	0xbd17d6b7	-0.037070002
249	0xbcfe754b	-0.031061789
250	0x3c2478e0	0.0100385845
251	0xbcaa2d61	-0.020773591
252	0x3c7bd59e	0.0153707545
253	0x3d846771	0.064650424
254	0x3d5a7ac0	0.05333972
255	0xbd59d3c6	-0.05318048

fc1.bias f4 [120]
0	0x3da5fa7b	0.08104416
1	0xbce9fc7e	-0.02856278
2	0x3d002685	0.031286735
3	0x3d6a3094	0.057175234
4	0x3d0e26b6	0.034704886
5	0xbd45c9cd	-0.048288155
6	0xbdc2d599	-0.09513397
7	0x3e1d7d4e	0.15379831
8	0x3afacd38	0.0019134646
9	0x3debe50f	0.11518299
10	0x3be32f49	0.006933127
11	0xbd9391c1	-0.07205535
12	0xbcf8273f	-0.030292151
13	0xbd56f031	-0.052475158
14	0xbd00569d	-0.0313326
15	0x3b929384	0.0044731516
16	0x3d9fa524	0.0779517
17	0xbe117a5f	-0.14206837
18	0xbd204206	-0.039125465
19	0x3d04a8c2	0.032387502
20	0xbd0c4f23	-0.03425516
21	0xbda21765	-0.079146184
22	0x3d199681	0.037497047
23	0x3d81d1c7	0.0633884
24	0x3bf23c0a	0.007392411
25	0xbd707ce5	-0.05871286
26	0x3e2baeee	0.16765949
27	0x3d014744	0.031562105
28	0xbccafa6d	-0.024777615
29	0x3c40f896	0.0117780175
30	0xbcb8b1b2	-0.02254567
31	0xbcbbc3f1	-0.02292058
32	0xbd35c87b	-0.044380646
33	0xbdbbdf28	-0.09173423
34	0xbd20dfa7	-0.03927579
35	0x3d3be886	0.04587605
36	0x3e0ed513	0.13948469
37	0xbb4aea7a	-0.0030962513
38	0xbd361bd5	-0.044460136
39	0x3d302e6e	0.04301303
40	0x3d54baef	0.051936086
41	0x3dfe08ee	0.12404047
42	0x3c05ef3b	0.008174713
43	0x3c8ca179	0.01716684
44	0xbba83ceb	-0.005134215
45	0xbd1cebbe	-0.03831076
46	0x3b77834b	0.0037767466
47	0x3d0c580c	0.034263656
48	0x3c36ad1c	0.011149671
49	0x3d549414	0.05189903
50	0xbd2ba530	-0.041905582
51	0x3d843b15	0.064565815
52	0x3e30005d	0.17187639
53	0xbd647c9f	-0.05578291
54	0x3d4f4c31	0.05060977
55	0x3ca34720	0.019931376
56	0xbdc440fe	-0.09582709
57	0x3e02e7bf	0.12783717
58	0xbc9b8ac2	-0.018987063
59	0x3c5e17f0	0.013555512
60	0x3e061f9e	0.13097998
61	0x3d027fad	0.031860042
62	0x3c850ffd	0.016242975
63	0xbcf7c08c	-0.03024318
64	0x3e2b5b86	0.16734132
65	0x3bb03453	0.0053773313
66	0x3dd0b0d9	0.10189981
67	0x3df70c59	0.12062902
68	0x3b495c27	0.0030725093
69	0xbd91a751	-0.07111991
70	0x3d88c623	0.066784166
71	0x3daa8b0c	0.08327302
72	0x3d66cadf	0.056345817
73	0x3a6cbe1c	0.0009031014
74	0xbcd0cc28	-0.025487974
75	0xbc820527	-0.015871597
76	0xba791a6d	-0.0009502534
77	0x3e20cfb7	0.15704237
78	0x3d250164	0.04028453
79	0xbcdf5e6c	-0.027266704
80	0x3cac3d0e	0.021025207
81	0x3d8d584e	0.069016084
82	0x3d3682f5	0.044558484
83	0x3d0cc6ba	0.034369208
84	0x3cce0ea3	0.025153464
85	0x3d355c38	0.0442774
86	0x3dd0e9bd	0.10200832
87	0xbb49bc71	-0.0030782486
88	0xbc75e6b5	-0.015008618
89	0x3e1129db	0.14176123
90	0xbdbadd74	-0.0912427
91	0x3da13f2b	0.078733765
92	0xbd0b6261	-0.03402937
93	0x3b75ea5b	0.003752372
94	0x3d494436	0.049137317
95	0xbd317192	-0.0433212
96	0x3d978308	0.07398039
97	0xbc052c61	-0.008128257
98	0x3d9923fc	0.074775666
99	0x3d110283	0.035402786
100	0xbda2548f	-0.079262845
101	0x3d20c61b	0.039251428
102	0x3d4c62a9	0.049898777
103	0xbc05ae6e	-0.008159263
104	0xbd85e331	-0.06537474
105	0x3d586a21	0.052835587
106	0xbc9f6e0f	-0.01946166
107	0x3c513c89	0.01277078
108	0xbc4e5c46	-0.012595242
109	0x3d4b0814	0.04956825
110	0xbcb157c4	-0.021648295
111	0xbd7c35af	-0.061574634
112	0xbd8e7ec8	-0.06957775
113	0xbd0119ef	-0.031518873
114	0x3ceddc64	0.029035755
115	0x3cfeafba	0.031089652
116	0x3c930d94	0.01795081
117	0x3cfb3306	0.030663978
118	0x3ceb1927	0.028698517
119	0x3cb8349b	0.022486022

fc2.weight f4 [84, 120]
0	0xbd726f15	-0.059187967
1	0xbdfcbe9d	-0.12341044
2	0x3d1206cd	0.035651017
3	0xbd380075	-0.04492231
4	0x3c509268	0.0127302185
5	0x3dc21c30	0.094780326
6	0x3decef65	0.115690984
7	0x3d474e05	0.04865839
8	0xbd87f2a6	-0.066380784
9	0x3d116514	0.035496786
10	0x3d2848df	0.04108512
11	0x3c9dee17	0.01927857
12	0x3cf4bfa9	0.029876547
13	0xbdd32528	-0.10309821
14	0xbc5e7cce	-0.01357956
15	0x3d934c24	0.07192257
16	0x3d1a56c5	0.037680406
17	0xbd63b3d9	-0.055591438
18	0x3b3697f3	0.0027861565
19	0xbd97c686	-0.07410912
20	0xbc953315	-0.018212834
21	0xbdf8f7ce	-0.1215664
22	0x3bab8eb5	0.005235518
23	0xbc94cedd	-0.018165046
24	0x3e105ad5	0.1409715
25	0xbd566c87	-0.052349593
26	0x3dc02a00	0.09383011
27	0xbd99cf95	-0.07510296
28	0xbe24bced	-0.16087694
29	0xbddee242	-0.10882999
30	0xbd0861db	-0.033296447
31	0x3d2d2962	0.042275794
32	0xbc31ba25	-0.010847603
33	0x3dad7d5d	0.08471177
34	0x3cc34b33	0.023839569
35	0xbd872586	-0.06598954
36	0xbcb70087	-0.022339119
37	0xbd13386b	-0.035942476
38	0x3b807f25	0.003921407
39	0xbd35c9ec	-0.04438202
40	0xbd6434a8	-0.05571428
41	0x3df79270	0.120884776
42	0xbc0f710b	-0.008754979
43	0xbca45524	-0.02006013
44	0xbd2c1b15	-0.042018015
45	0xbd8a69cf	-0.06758463
46	0xbda44624	-0.08021191
47	0xbd91c8f0	-0.07118404
48	0x3c9e4c19	0.019323396
49	0xbcfb45ff	-0.030673025
50	0xbd52b4ef	-0.051442083
51	0xbdf53e09	-0.11974723
52	0xbd7fa45c	-0.062412605
53	0xbb818f39	-0.003953841
54	0x3cc0294e	0.023457196
55	0xbd11cdce	-0.03559666
56	0xbe07fa59	-0.13279094
57	0x3dc2bf09	0.09509093
58	0x3d944343	0.07239392
59	0x3de088c6	0.109635875
60	0xbd75ca69	-0.060007486
61	0x3d1fe2a1	0.03903449
62	0xbda08727	-0.07838278
63	0xbcb9d13c	-0.022682779
64	0xbe14ecd2	-0.14543465
65	0xbd0cd217	-0.034380045
66	0xbd129dce	-0.035795026
67	0x3d1f65f2	0.038915582
68	0x3df6d281	0.12051869
69	0x3df4ba21	0.11949564
70	0xbcaaead3	-0.020863926
71	0xbdb7115a	-0.089388564
72	0x3e178787	0.14797793
73	0x3da6b3d0	0.08139765
74	0x3c33794e	0.010954214
75	0x3e15124b	0.1455776
76	0xbc67e27e	-0.014153121
77	0x3de22382	0.11041929
78	0x3dbab807	0.09117132
79	0x3e3e4706	0.18581781
80	0xbd8e0359	-0.06934232
81	0xbddda215	-0.1082193
82	0xbcdb9a00	-0.026806831
83	0x3d60231b	0.05472098
84	0x3c85a8a0	0.016315758
85	0xbdc571d2	-0.0964085
86	0xbe5dc33c	-0.21656507
87	0xbb57cf8a	-0.00329301
88	0x3d72d4d3	0.059284996
89	0xbdc7f6a6	-0.09763841
90	0x3c9e1715	0.019298116
91	0xbe5ae830	-0.21377635
92	0xbd82f012	-0.06393446
93	0x3e15da72	0.14634112
94	0x3da155c2	0.07877685
95	0x3dac8cf9	0.08425326
96	0xbda12efe	-0.07870291
97	0x3d2cfba4	0.04223217
98	0x3d5f58c1	0.054528
99	0xbe02aec6	-0.12761983
100	0xbda11f1a	-0.0786726
101	0xbc6d3b4d	-0.01447947
102	0xbd691735	-0.056906898
103	0xbd641f11	-0.05569369
104	0x3deea103	0.11651804
105	0xbbf3ad14	-0.007436404
106	0x3d5c9e09	0.05386165
107	0xbe1067ce	-0.14102098
108	0x3dffe8c3	0.12495568
109	0x3d23f82c	0.040031597
110	0x3d93fca3	0.07225921
111	0x3d4c556b	0.04988615
112	0x3d8fd57d	0.070231415
113	0xbd0c7965	-0.03429546
114	0xbd8edd1b	-0.06975766
115	0xbd650117	-0.055909242
116	0xbdf21978	-0.11821264
117	0x3d8e72d0	0.069554925
118	0xbd8507b5	-0.064956106
119	0x3db07d57	0.08617657
120	0x3b02c24f	0.0019952243
121	0x3dcc6174	0.09979525
122	0xbd9ef0a5	-0.07760743
123	0x3d9dd5fd	0.07706831
124	0x3d19e075	0.037567575
125	0x3d2df144	0.042466417
126	0xbbf5710e	-0.007490284
127	0xbd2dd002	-0.0424347
128	0x3d535c97	0.051601972
129	0xbbc9063b	-0.006134776
130	0xbe04bfbf	-0.1296377
131	0x3d6bc3bc	0.057559714
132	0xbca79b3d	-0.020459766
133	0x3d379f7f	0.04482984
134	0xbda86900	-0.08223152
135	0x3d6816c0	0.05666232
136	0x3d7ced71	0.06174988
137	0x3cd37a4c	0.025815152
138	0xbdadcb55	-0.08486048
139	0x3e0c628c	0.13709468
140	0x3d9668df	0.07344221
141	0x3cf1ee6c	0.029532634
142	0x3d1f90d5	0.038956482
143	0xbd4df3c2	-0.050281294
144	0xbce6e75f	-0.028186498
145	0x3dd870d3	0.105683945
146	0x3db6062c	0.08887896
147	0xbc248cdd	-0.01004335
148	0x3c4dae11	0.012553708
149	0x3d6a8d0c	0.05726342
150	0xbc47449e	-0.012162356
151	0xbd9a0b1c	-0.0752165
152	0xbd7a5114	-0.06111248
153	0xbd221977	-0.039575066
154	0xbd3b3c2a	-0.045711674
155	0xbc32beb2	-0.010909723
156	0xbddba4ea	-0.10724814
157	0xbdafaa4f	-0.08577406
158	0x3dce8769	0.10084421
159	0x3d4ab113	0.049485277
160	0xbd869f0f	-0.06573307
161	0xbdc97eb2	-0.09838618
162	0xbdb89b5d	-0.09014008
163	0xbd2e4db0	-0.042554557
164	0xbd02839b	-0.03186379
165	0xbd7c73c0	-0.061633825
166	0xbdfae9cc	-0.122516245
167	0x3d906792	0.070510045
168	0xbd86ffad	-0.06591735
169	0xbc1ac40e	-0.009446157
170	0x3d3de61a	0.04636202
171	0x3e2c2701	0.16811754
172	0xbd8d5066	-0.069001004
173	0xbdc5c304	-0.09656337
174	0x3d997fdd	0.07495091
175	0xbdb0e604	-0.08637622
176	0xbcbf5796	-0.023357194
177	0x3c904b6c	0.017614089
178	0x3dc81b2b	0.09770807
179	0x3d85207e	0.06500338
180	0xbd0f6190	-0.035005152
181	0xbd826f34	-0.063688666
182	0xbcf133d4	-0.029443659
183	0xbc0451ee	-0.008076174
184	0xbdc16035	-0.09442178
185	0xbca2de9b	-0.019881537
186	0x3c282d53	0.010264712
187	0x3c7f3be3	0.015578243
188	0xbc4965ca	-0.012292335
189	0x3db53f2c	0.0884994
190	0x3cf9ebb7	0.030507905
191	0x3d88a923	0.06672885
192	0x3cf5a1e1	0.029984416
193	0x3d75f708	0.06005004
194	0x3b8488cc	0.004044628
195	0xbc59747b	-0.0132724
196	0xbd902c19	-0.07039661
197	0xbce8fdfe	-0.028441425
198	0xbc7e2d00	-0.0155136585
199	0xbd5c2127	-0.053742554
200	0xbcd979a4	-0.02654726
201	0xbd83d1b3	-0.06436481
202	0x3c7ba522	0.015359195
203	0xbc723489	-0.014783033
204	0xbd5d623a	-0.054048754
205	0x3d34d74b	0.044150632
206	0xbd120a98	-0.035654634
207	0x3d8718d5	0.06596533
208	0xbc97d8db	-0.018536022
209	0xba289f21	-0.00064324035
210	0xbd5aa6c6	-0.053381704
211	0xbd53cce6	-0.05170908
212	0xbdf493f3	-0.119422816
213	0xbcd8e398	-0.026475713
214	0xbd70241a	-0.05862818
215	0xbd0bf84e	-0.03417235
216	0x3e09a455	0.13441594
217	0x3d693899	0.05693874
218	0xbce1108b	-0.027473709
219	0xbd0171cc	-0.031602666
220	0x3df511b4	0.11966267
221	0x3d710a12	0.058847494
222	0xbcdcf42a	-0.026971895
223	0x3da1dd83	0.07903578
224	0x3da8d356	0.08243434
225	0xbd1b9e6f	-0.03799289
226	0x3d333280	0.043749332
227	0x3d54e606	0.05197718
228	0xbd123ba2	-0.0357014
229	0xbdb64bf6	-0.08901207
230	0xbdc05fb5	-0.09393255
231	0x3d258da3	0.04041828
232	0xbd1d1d28	-0.038357884
233	0x3ca6da47	0.020367755
234	0xbd3481eb	-0.044069212
235	0xbce32b21	-0.027730526
236	0x3dd28c87	0.1028071
237	0x3d105c9a	0.03524456
238	0x3d0d895e	0.03455483
239	0xbe0f74a6	-0.14009342
240	0xbd5cbdbd	-0.053891886
241	0x3bb26ec0	0.0054453313
242	0xbbf4d803	-0.0074720397
243	0x3d92068e	0.071301565
244	0xbda24901	-0.07924081
245	0x3e2889b8	0.16458786
246	0xbd0a5e42	-0.033781298
247	0x3e13206b	0.14367835
248	0x3e0dc06b	0.13842933
249	0x3e1e6e39	0.15471734
250	0xbd4a604f	-0.049408253
251	0xbd0dc33b	-0.034610014
252	0x3d408331	0.047000114
253	0xbd8802f8	-0.06641191
254	0xbc828a79	-0.01593517
255	0x3cd6d518	0.026224658

fc2.bias f4 [84]
0	0x3d1c3a5c	0.038141593
1	0xbd8b40ab	-0.06799444
2	0x3e97960e	0.2960667
3	0xbe11ff80	-0.14257622
4	0x3e25270a	0.16128173
5	0x3d6a85d6	0.057256542
6	0x3d1ce7e7	0.038307097
7	0x3e217759	0.15768184
8	0x3e5b7bb8	0.21433914
9	0xbd3558d6	-0.044274174
10	0xbda49a97	-0.08037298
11	0xb89141df	-6.926408e-05
12	0xbe008f40	-0.12554646
13	0x3ea0667c	0.3132819
14	0x3d112f21	0.035445336
15	0xbd9457f4	-0.07243338
16	0xbdcad4d8	-0.09903878
17	0xbda1cb7c	-0.0790014
18	0x3e07f3e4	0.1327663
19	0x3dd4c5eb	0.10389312
20	0x3d553f6b	0.052062433
21	0x3cf9d31a	0.030496169
22	0x3d548d26	0.051892422
23	0x3e5b6c43	0.21428017
24	0x3cc322d2	0.023820315
25	0xbe17dea1	-0.1483102
26	0x3e1e21a6	0.15442523
27	0xbd4acee3	-0.04951371
28	0x3d606312	0.05478198
29	0xbc636268	-0.013878442
30	0x3dad1bbc	0.084525555
31	0xbdc31064	-0.09524611
32	0xbe0d767e	-0.13814732
33	0xbda01d8d	-0.07818136
34	0x3e1394b2	0.14412192
35	0x3cdd85ec	0.027041398
36	0xbc1c1976	-0.009527555
37	0x3d8f4290	0.06995118
38	0x3da5ebe4	0.08101633
39	0x3da88519	0.08228511
40	0x3e365ff7	0.17810045
41	0xbdf64bf8	-0.12026209
42	0x3c660398	0.014038943
43	0xbe372ec3	-0.17888932
44	0x3b1e28d4	0.0024133222
45	0x3d531fc1	0.051543955
46	0xbc76a30c	-0.015053522
47	0x3dee446b	0.116341434
48	0x3d9f1a8d	0.07768736
49	0x3d9d494f	0.07679998
50	0x3d3dfc13	0.046382975
51	0x3d777674	0.0604157
52	0x3e66cb80	0.22538567
53	0xbdfbd1c1	-0.12295867
54	0x3b8ba95a	0.0042621316
55	0x3d8fa465	0.07013778
56	0x3d88cae3	0.066793226
57	0xbd8f1248	-0.06985909
58	0xbd8fdc52	-0.07024445
59	0xbd36c9ce	-0.04462605
60	0xbc69f65e	-0.01427993
61	0xbd86d1f2	-0.06583013
62	0xbdb91dcd	-0.09038887
63	0x3e124a99	0.14286269
64	0x3d466893	0.048439573
65	0xbe22562e	-0.15853187
66	0xbd3d8f0b	-0.046278995
67	0xbdf62b6a	-0.12019999
68	0xbd6ef839	-0.058342192
69	0x3e7d9259	0.24762858
70	0xbcfeb103	-0.031090265
71	0x3e521e94	0.20519477
72	0x3e2ca85f	0.16861103
73	0xbdcca832	-0.09993018
74	0xbd00efbd	-0.031478632
75	0x3e243a02	0.16037753
76	0x3d15f16f	0.036607202
77	0x3e0da35c	0.13831848
78	0x3e466481	0.19374277
79	0xbc214bbc	-0.009844717
80	0x3d96e724	0.07368305
81	0x3d09affc	0.033615097
82	0x3d8a949e	0.06766628
83	0xbd25b053	-0.04045136

fc3.weight f4 [10, 84]
0	0xbe65b6f8	-0.22433078
1	0x3e20352d	0.15645285
2	0xbea4504e	-0.32092518
3	0x3ef882f5	0.48537412
4	0x3e5e5233	0.21711044
5	0xbec3c023	-0.38232526
6	0xbdfdd5ca	-0.12394293
7	0xbea58c00	-0.32333374
8	0x3e591318	0.2119869
9	0xbe38aadb	-0.18033926
10	0x3e5ed48e	0.2176077
11	0x3e85678a	0.26055557
12	0xbe3c190f	-0.18368934
13	0xbea39d34	-0.31955874
14	0xbe6edf46	-0.2332736
15	0x3c090b04	0.008364443
16	0xbbdecfdd	-0.0067996816
17	0x3f018924	0.50599885
18	0xbd97f54a	-0.07419832
19	0xbd65b4f1	-0.056080762
20	0x3d98c003	0.07458498
21	0x3dbddc56	0.09270541
22	0xbdfcd622	-0.1234553
23	0x3d046e46	0.032331727
24	0xbd93dfa5	-0.07220391
25	0x3dc2e031	0.09515417
26	0x3e51afe6	0.20477256
27	0xbe92683c	-0.2859515
28	0x3eba889c	0.3643235
29	0x3dd948a1	0.10609556
30	0xbd8fcf3d	-0.070219494
31	0xbe2aa3cd	-0.16664048
32	0x3ec9fb21	0.3944941
33	0xbd4c71b1	-0.049913112
34	0xbe4a7898	-0.19772565
35	0x3e92cf8b	0.28673968
36	0xbe5b3fde	-0.21411082
37	0x3c3f6e15	0.01168396
38	0x3bee5f18	0.0072745197
39	0xbe67a92d	-0.22623129
40	0xbe4228f7	-0.1896094
41	0x3e1ccce0	0.15312529
42	0x3c0aab4a	0.00846369
43	0x3e0b1e8a	0.13585868
44	0x3c31282f	0.010812803
45	0xbca7a68d	-0.02046516
46	0xbc984d44	-0.01859153
47	0xbd1c9017	-0.038223352
48	0x3e472d7c	0.19450945
49	0xbe46795e	-0.19382235
50	0xbbd9aa86	-0.0066426424
51	0xbe53c262	-0.2067962
52	0xbe89a795	-0.26885667
53	0x3e8ccf7a	0.27502042
54	0x3e999124	0.29993546
55	0xbe347a4d	-0.17624779
56	0x3d678439	0.05652258
57	0xbdc77a38	-0.09740108
58	0x3e0bc50a	0.13649383
59	0x3e2fd6f1	0.17171837
60	0x3d83a415	0.064277805
61	0xbe971e54	-0.29515326
62	0xbe1a976b	-0.15096824
63	0x3de2e7dc	0.1107938
64	0xbd9810db	-0.0742509
65	0x3d195f6b	0.037444513
66	0xbe0fb9f7	-0.14035784
67	0x3ee559c5	0.4479505
68	0x3ebe3e9c	0.37157142
69	0xbe466366	-0.19373855
70	0xbe175d34	-0.14781648
71	0xbe59b6d5	-0.21261151
72	0xbe86df4c	-0.26342237
73	0xbc8cb2fb	-0.017175188
74	0x3d702771	0.058631364
75	0x3e88a65b	0.2668942
76	0x3d24ea99	0.040262792
77	0xbce5a1fe	-0.028031345
78	0xbe13c081	-0.14428903
79	0xbd35ada4	-0.04435505
80	0x3d40a600	0.04703331
81	0x3ea152bc	0.31508434
82	0x3e16dad7	0.14731918
83	0x3d9155f6	0.07096474
84	0x3b687441	0.0035469683
85	0x3e6b55f0	0.22982001
86	0xbebb6178	-0.365978
87	0x3d9f21ef	0.07770144
88	0xbb89611d	-0.004192485
89	0x3ead9fb5	0.3391091
90	0x3e7cc121	0.24683048
91	0xbe087b75	-0.13328345
92	0xbed2eaeb	-0.41194853
93	0x3cad25b4	0.021136142
94	0xbdf91ba2	-0.12163474
95	0x3e2b9b0d	0.16758366
96	0x3d257122	0.040391095
97	0x3cd246d7	0.025668545
98	0x3e2cbf1c	0.16869777
99	0xbcd05e56	-0.025435608
100	0xbdcf0e82	-0.10110189
101	0xbe74ebfc	-0.23918146
102	0xbe8e8a44	-0.27839863
103	0xbe2f6a3a	-0.17130366
104	0xbc60aa5c	-0.013712492
105	0x3c967816	0.018367808
106	0xbd581738	-0.052756518
107	0xbeb63476	-0.355869
108	0xbd1c9830	-0.038231075
109	0xbdd77072	-0.10519494
110	0xbe4f743a	-0.2025918
111	0x3e930d8a	0.28721267
112	0x3de6d8c2	0.11271812
113	0x3c1fb317	0.009747288
114	0xbd70f692	-0.058828898
115	0x3f13f359	0.57793194
116	0x3d991465	0.07474593
117	0xbdba9a46	-0.091114566
118	0xbea13c6d	-0.31491414
119	0xbe8ace29	-0.27110413
120	0xbe157057	-0.14593635
121	0x3f057f62	0.52147496
122	0x3d6772cb	0.05650596
123	0x3d69b0c5	0.057053346
124	0xbe016485	-0.12636001
125	0xbc109c54	-0.008826334
126	0x3dc96205	0.09833149
127	0x3e596e59	0.212335
128	0xbc85d92d	-0.016338909
129	0x3ee22077	0.44165394
130	0xbd20afc4	-0.039230123
131	0x3e355897	0.17709576
132	0x3dc15d43	0.094416164
133	0x3e971423	0.2950755
134	0x3df7dc71	0.12102593
135	0xbd042e99	-0.032271
136	0xbe6289e3	-0.22122912
137	0x3ea98823	0.33111677
138	0x3d921276	0.071324274
139	0xbd8eb875	-0.06968776
140	0xbdf07e87	-0.11742883
141	0xbdee9a63	-0.11650541
142	0xbd53f30f	-0.05174547
143	0x3d01e2c4	0.0317104
144	0x3d31eb9e	0.043437593
145	0x3e20940b	0.15681474
146	0x3dec46e3	0.11536958
147	0xbde1b3a1	-0.110205896
148	0xbdb1927e	-0.08670519
149	0x3eadc244	0.33937275
150	0x3e95b6e4	0.29241097
151	0xbe25a08b	-0.16174524
152	0x3e48900d	0.19586201
153	0xbf1b8947	-0.60756344
154	0x3d67894a	0.056527413
155	0x3cef738f	0.029229907
156	0xbe7fc114	-0.24975997
157	0xbdb31d98	-0.08745879
158	0xbc96e35e	-0.018418964
159	0xbe4bb96d	-0.19894953
160	0x3dd6ce34	0.10488549
161	0xbebb7a15	-0.3661658
162	0xbe9a6cd0	-0.30161142
163	0x3d86d219	0.06583042
164	0xbd0c3b92	-0.0342365
165	0xbd82d70b	-0.063886724
166	0xbea7af87	-0.32751104
167	0x3da7b6a8	0.08189136
168	0x3e5cf590	0.2157805
169	0xbd212331	-0.0393402
170	0x3e5d5d2a	0.2161757
171	0xbdf15afc	-0.11784932
172	0xbe84ae9e	-0.25914472
173	0x3e6f14b3	0.2334774
174	0xbe279dec	-0.16368836
175	0x3d0c39d1	0.034234826
176	0xbda983c2	-0.08277084
177	0xbd6d244e	-0.05789595
178	0xbee309e5	-0.44343486
179	0xbbe4f8fa	-0.006987688
180	0xbea2faac	-0.31831872
181	0xbe12e17e	-0.14343831
182	0xbe1cf41b	-0.15327494
183	0x3ed9a022	0.42504984
184	0xbd1e7941	-0.038689855
185	0x3f0eb6ef	0.55747885
186	0xbd58af53	-0.052901577
187	0xbcc7075a	-0.024295498
188	0x3e01ca16	0.12674746
189	0x3dcf18f2	0.1011218
190	0xbdc3ecfc	-0.095666856
191	0x3c570c84	0.013125543
192	0x3bc57a7d	0.0060265646
193	0x3e2abff3	0.16674785
194	0xbd04a4f0	-0.03238386
195	0x3a6fb0a8	0.00091434503
196	0x3d3b5980	0.04573965
197	0xbceffe94	-0.029296197
198	0xbe18884a	-0.1489574
199	0x3e9eb7d9	0.3099964
200	0xbe90d507	-0.28287527
201	0xbbf51f74	-0.007480556
202	0x3d236084	0.039886966
203	0x3f16a4bb	0.5884511
204	0x3e74901f	0.23883103
205	0xbe6a6819	-0.22891273
206	0x3cbf4b4d	0.023351336
207	0xbe6f2d32	-0.23357084
208	0xbe8aed4f	-0.27134177
209	0x3de7859c	0.11304781
210	0xbdc4e2bf	-0.09613561
211	0x3d5834c4	0.052784696
212	0xbe8811e5	-0.26576152
213	0xbe1fbafb	-0.15598671
214	0x3c5da87c	0.013528939
215	0x3e6f3b6d	0.23362513
216	0xbd228622	-0.0396787
217	0x3da6205f	0.08111643
218	0x3f0061bc	0.5014913
219	0xbc2b3a36	-0.01045089
220	0x3c938c05	0.018011102
221	0xbe0874d1	-0.13325812
222	0x3e88afee	0.26696724
223	0x3de7c95d	0.11317704
224	0xbe5c79b0	-0.21530795
225	0x3d959d22	0.07305361
226	0xbd29df80	-0.04147291
227	0xbc8bef85	-0.017081985
228	0x3e38ad12	0.18034771
229	0x3ca0389f	0.019558249
230	0xbd61fc9a	-0.05517254
231	0xbde57304	-0.11203578
232	0xbdc38546	-0.09546904
233	0x3e229c43	0.15879922
234	0x3dec19b6	0.115283415
235	0x3efb5364	0.4908706
236	0xbcd49f58	-0.025954887
237	0x3e8c0f74	0.2735554
238	0x3db74e8a	0.08950527
239	0x3e862df5	0.26206937
240	0x3e804225	0.25050464
241	0xbaf3d329	-0.0018602359
242	0xbe5f6c74	-0.21818715
243	0x3e991c24	0.29904282
244	0xbd14e30e	-0.03634935
245	0x3e8135a1	0.25236228
246	0xbe451a63	-0.19248347
247	0xbeabc078	-0.3354528
248	0x3de1bbdf	0.11022162
249	0xbe9a51cb	-0.30140528
250	0x3e033997	0.12814938
251	0x3d457fef	0.04821771
252	0xbe854c78	-0.26034904
253	0xbdb7910b	-0.089632116
254	0x3d913b6c	0.07091412
255	0x3dba9097	0.091096096

fc3.bias f4 [10]
0	0xbe32e9f0	-0.17472053
1	0xbe8b30d3	-0.27185687
2	0x3d797c14	0.060909346
3	0x3e110da2	0.14165357
4	0x3eeff5a8	0.46867108
5	0xbe486519	-0.19569816
6	0x3d26299e	0.040567033
7	0xbe225920	-0.15854311
8	0x3e308108	0.17236722
9	0xbd46d978	-0.048547238
